{"keras_version": "2.2.4", "class_name": "Model", "backend": "tensorflow", "config": {"input_layers": [["input_1", 0, 0]], "output_layers": [["dense_19", 0, 0]], "name": "model_1", "layers": [{"inbound_nodes": [], "class_name": "InputLayer", "name": "input_1", "config": {"batch_input_shape": [null, 96, 96, 3], "dtype": "float32", "name": "input_1", "sparse": false}}, {"inbound_nodes": [[["input_1", 0, 0, {}]]], "class_name": "Conv2D", "name": "conv2d_1", "config": {"bias_constraint": null, "dilation_rate": [1, 1], "bias_initializer": {"class_name": "Zeros", "config": {}}, "kernel_constraint": null, "activation": "linear", "trainable": true, "activity_regularizer": null, "kernel_size": [3, 3], "filters": 64, "name": "conv2d_1", "kernel_regularizer": null, "data_format": "channels_last", "kernel_initializer": {"class_name": "VarianceScaling", "config": {"scale": 1.0, "seed": null, "mode": "fan_avg", "distribution": "uniform"}}, "strides": [1, 1], "use_bias": true, "padding": "same", "bias_regularizer": null}}, {"inbound_nodes": [[["conv2d_1", 0, 0, {}]]], "class_name": "BatchNormalization", "name": "batch_normalization_1", "config": {"epsilon": 0.001, "axis": -1, "moving_variance_initializer": {"class_name": "Ones", "config": {}}, "gamma_regularizer": null, "beta_initializer": {"class_name": "Zeros", "config": {}}, "center": true, "gamma_constraint": null, "moving_mean_initializer": {"class_name": "Zeros", "config": {}}, "beta_regularizer": null, "name": "batch_normalization_1", "scale": true, "gamma_initializer": {"class_name": "Ones", "config": {}}, "beta_constraint": null, "trainable": true, "momentum": 0.99}}, {"inbound_nodes": [[["batch_normalization_1", 0, 0, {}]]], "class_name": "Activation", "name": "activation_1", "config": {"activation": "relu", "trainable": true, "name": "activation_1"}}, {"inbound_nodes": [[["activation_1", 0, 0, {}]]], "class_name": "Conv2D", "name": "conv2d_2", "config": {"bias_constraint": null, "dilation_rate": [1, 1], "bias_initializer": {"class_name": "Zeros", "config": {}}, "kernel_constraint": null, "activation": "linear", "trainable": true, "activity_regularizer": null, "kernel_size": [1, 1], "filters": 64, "name": "conv2d_2", "kernel_regularizer": null, "data_format": "channels_last", "kernel_initializer": {"class_name": "VarianceScaling", "config": {"scale": 1.0, "seed": null, "mode": "fan_avg", "distribution": "uniform"}}, "strides": [1, 1], "use_bias": true, "padding": "same", "bias_regularizer": null}}, {"inbound_nodes": [[["activation_1", 0, 0, {}]]], "class_name": "Conv2D", "name": "conv2d_4", "config": {"bias_constraint": null, "dilation_rate": [1, 1], "bias_initializer": {"class_name": "Zeros", "config": {}}, "kernel_constraint": null, "activation": "linear", "trainable": true, "activity_regularizer": null, "kernel_size": [1, 1], "filters": 64, "name": "conv2d_4", "kernel_regularizer": null, "data_format": "channels_last", "kernel_initializer": {"class_name": "VarianceScaling", "config": {"scale": 1.0, "seed": null, "mode": "fan_avg", "distribution": "uniform"}}, "strides": [1, 1], "use_bias": true, "padding": "same", "bias_regularizer": null}}, {"inbound_nodes": [[["activation_1", 0, 0, {}]]], "class_name": "Conv2D", "name": "conv2d_6", "config": {"bias_constraint": null, "dilation_rate": [1, 1], "bias_initializer": {"class_name": "Zeros", "config": {}}, "kernel_constraint": null, "activation": "linear", "trainable": true, "activity_regularizer": null, "kernel_size": [1, 1], "filters": 64, "name": "conv2d_6", "kernel_regularizer": null, "data_format": "channels_last", "kernel_initializer": {"class_name": "VarianceScaling", "config": {"scale": 1.0, "seed": null, "mode": "fan_avg", "distribution": "uniform"}}, "strides": [1, 1], "use_bias": true, "padding": "same", "bias_regularizer": null}}, {"inbound_nodes": [[["activation_1", 0, 0, {}]]], "class_name": "Conv2D", "name": "conv2d_8", "config": {"bias_constraint": null, "dilation_rate": [1, 1], "bias_initializer": {"class_name": "Zeros", "config": {}}, "kernel_constraint": null, "activation": "linear", "trainable": true, "activity_regularizer": null, "kernel_size": [1, 1], "filters": 64, "name": "conv2d_8", "kernel_regularizer": null, "data_format": "channels_last", "kernel_initializer": {"class_name": "VarianceScaling", "config": {"scale": 1.0, "seed": null, "mode": "fan_avg", "distribution": "uniform"}}, "strides": [1, 1], "use_bias": true, "padding": "same", "bias_regularizer": null}}, {"inbound_nodes": [[["activation_1", 0, 0, {}]]], "class_name": "Conv2D", "name": "conv2d_10", "config": {"bias_constraint": null, "dilation_rate": [1, 1], "bias_initializer": {"class_name": "Zeros", "config": {}}, "kernel_constraint": null, "activation": "linear", "trainable": true, "activity_regularizer": null, "kernel_size": [1, 1], "filters": 64, "name": "conv2d_10", "kernel_regularizer": null, "data_format": "channels_last", "kernel_initializer": {"class_name": "VarianceScaling", "config": {"scale": 1.0, "seed": null, "mode": "fan_avg", "distribution": "uniform"}}, "strides": [1, 1], "use_bias": true, "padding": "same", "bias_regularizer": null}}, {"inbound_nodes": [[["activation_1", 0, 0, {}]]], "class_name": "Conv2D", "name": "conv2d_12", "config": {"bias_constraint": null, "dilation_rate": [1, 1], "bias_initializer": {"class_name": "Zeros", "config": {}}, "kernel_constraint": null, "activation": "linear", "trainable": true, "activity_regularizer": null, "kernel_size": [1, 1], "filters": 64, "name": "conv2d_12", "kernel_regularizer": null, "data_format": "channels_last", "kernel_initializer": {"class_name": "VarianceScaling", "config": {"scale": 1.0, "seed": null, "mode": "fan_avg", "distribution": "uniform"}}, "strides": [1, 1], "use_bias": true, "padding": "same", "bias_regularizer": null}}, {"inbound_nodes": [[["activation_1", 0, 0, {}]]], "class_name": "Conv2D", "name": "conv2d_14", "config": {"bias_constraint": null, "dilation_rate": [1, 1], "bias_initializer": {"class_name": "Zeros", "config": {}}, "kernel_constraint": null, "activation": "linear", "trainable": true, "activity_regularizer": null, "kernel_size": [1, 1], "filters": 64, "name": "conv2d_14", "kernel_regularizer": null, "data_format": "channels_last", "kernel_initializer": {"class_name": "VarianceScaling", "config": {"scale": 1.0, "seed": null, "mode": "fan_avg", "distribution": "uniform"}}, "strides": [1, 1], "use_bias": true, "padding": "same", "bias_regularizer": null}}, {"inbound_nodes": [[["activation_1", 0, 0, {}]]], "class_name": "Conv2D", "name": "conv2d_16", "config": {"bias_constraint": null, "dilation_rate": [1, 1], "bias_initializer": {"class_name": "Zeros", "config": {}}, "kernel_constraint": null, "activation": "linear", "trainable": true, "activity_regularizer": null, "kernel_size": [1, 1], "filters": 64, "name": "conv2d_16", "kernel_regularizer": null, "data_format": "channels_last", "kernel_initializer": {"class_name": "VarianceScaling", "config": {"scale": 1.0, "seed": null, "mode": "fan_avg", "distribution": "uniform"}}, "strides": [1, 1], "use_bias": true, "padding": "same", "bias_regularizer": null}}, {"inbound_nodes": [[["conv2d_2", 0, 0, {}]]], "class_name": "BatchNormalization", "name": "batch_normalization_2", "config": {"epsilon": 0.001, "axis": -1, "moving_variance_initializer": {"class_name": "Ones", "config": {}}, "gamma_regularizer": null, "beta_initializer": {"class_name": "Zeros", "config": {}}, "center": true, "gamma_constraint": null, "moving_mean_initializer": {"class_name": "Zeros", "config": {}}, "beta_regularizer": null, "name": "batch_normalization_2", "scale": true, "gamma_initializer": {"class_name": "Ones", "config": {}}, "beta_constraint": null, "trainable": true, "momentum": 0.99}}, {"inbound_nodes": [[["conv2d_4", 0, 0, {}]]], "class_name": "BatchNormalization", "name": "batch_normalization_4", "config": {"epsilon": 0.001, "axis": -1, "moving_variance_initializer": {"class_name": "Ones", "config": {}}, "gamma_regularizer": null, "beta_initializer": {"class_name": "Zeros", "config": {}}, "center": true, "gamma_constraint": null, "moving_mean_initializer": {"class_name": "Zeros", "config": {}}, "beta_regularizer": null, "name": "batch_normalization_4", "scale": true, "gamma_initializer": {"class_name": "Ones", "config": {}}, "beta_constraint": null, "trainable": true, "momentum": 0.99}}, {"inbound_nodes": [[["conv2d_6", 0, 0, {}]]], "class_name": "BatchNormalization", "name": "batch_normalization_6", "config": {"epsilon": 0.001, "axis": -1, "moving_variance_initializer": {"class_name": "Ones", "config": {}}, "gamma_regularizer": null, "beta_initializer": {"class_name": "Zeros", "config": {}}, "center": true, "gamma_constraint": null, "moving_mean_initializer": {"class_name": "Zeros", "config": {}}, "beta_regularizer": null, "name": "batch_normalization_6", "scale": true, "gamma_initializer": {"class_name": "Ones", "config": {}}, "beta_constraint": null, "trainable": true, "momentum": 0.99}}, {"inbound_nodes": [[["conv2d_8", 0, 0, {}]]], "class_name": "BatchNormalization", "name": "batch_normalization_8", "config": {"epsilon": 0.001, "axis": -1, "moving_variance_initializer": {"class_name": "Ones", "config": {}}, "gamma_regularizer": null, "beta_initializer": {"class_name": "Zeros", "config": {}}, "center": true, "gamma_constraint": null, "moving_mean_initializer": {"class_name": "Zeros", "config": {}}, "beta_regularizer": null, "name": "batch_normalization_8", "scale": true, "gamma_initializer": {"class_name": "Ones", "config": {}}, "beta_constraint": null, "trainable": true, "momentum": 0.99}}, {"inbound_nodes": [[["conv2d_10", 0, 0, {}]]], "class_name": "BatchNormalization", "name": "batch_normalization_10", "config": {"epsilon": 0.001, "axis": -1, "moving_variance_initializer": {"class_name": "Ones", "config": {}}, "gamma_regularizer": null, "beta_initializer": {"class_name": "Zeros", "config": {}}, "center": true, "gamma_constraint": null, "moving_mean_initializer": {"class_name": "Zeros", "config": {}}, "beta_regularizer": null, "name": "batch_normalization_10", "scale": true, "gamma_initializer": {"class_name": "Ones", "config": {}}, "beta_constraint": null, "trainable": true, "momentum": 0.99}}, {"inbound_nodes": [[["conv2d_12", 0, 0, {}]]], "class_name": "BatchNormalization", "name": "batch_normalization_12", "config": {"epsilon": 0.001, "axis": -1, "moving_variance_initializer": {"class_name": "Ones", "config": {}}, "gamma_regularizer": null, "beta_initializer": {"class_name": "Zeros", "config": {}}, "center": true, "gamma_constraint": null, "moving_mean_initializer": {"class_name": "Zeros", "config": {}}, "beta_regularizer": null, "name": "batch_normalization_12", "scale": true, "gamma_initializer": {"class_name": "Ones", "config": {}}, "beta_constraint": null, "trainable": true, "momentum": 0.99}}, {"inbound_nodes": [[["conv2d_14", 0, 0, {}]]], "class_name": "BatchNormalization", "name": "batch_normalization_14", "config": {"epsilon": 0.001, "axis": -1, "moving_variance_initializer": {"class_name": "Ones", "config": {}}, "gamma_regularizer": null, "beta_initializer": {"class_name": "Zeros", "config": {}}, "center": true, "gamma_constraint": null, "moving_mean_initializer": {"class_name": "Zeros", "config": {}}, "beta_regularizer": null, "name": "batch_normalization_14", "scale": true, "gamma_initializer": {"class_name": "Ones", "config": {}}, "beta_constraint": null, "trainable": true, "momentum": 0.99}}, {"inbound_nodes": [[["conv2d_16", 0, 0, {}]]], "class_name": "BatchNormalization", "name": "batch_normalization_16", "config": {"epsilon": 0.001, "axis": -1, "moving_variance_initializer": {"class_name": "Ones", "config": {}}, "gamma_regularizer": null, "beta_initializer": {"class_name": "Zeros", "config": {}}, "center": true, "gamma_constraint": null, "moving_mean_initializer": {"class_name": "Zeros", "config": {}}, "beta_regularizer": null, "name": "batch_normalization_16", "scale": true, "gamma_initializer": {"class_name": "Ones", "config": {}}, "beta_constraint": null, "trainable": true, "momentum": 0.99}}, {"inbound_nodes": [[["batch_normalization_2", 0, 0, {}]]], "class_name": "Activation", "name": "activation_2", "config": {"activation": "relu", "trainable": true, "name": "activation_2"}}, {"inbound_nodes": [[["batch_normalization_4", 0, 0, {}]]], "class_name": "Activation", "name": "activation_4", "config": {"activation": "relu", "trainable": true, "name": "activation_4"}}, {"inbound_nodes": [[["batch_normalization_6", 0, 0, {}]]], "class_name": "Activation", "name": "activation_6", "config": {"activation": "relu", "trainable": true, "name": "activation_6"}}, {"inbound_nodes": [[["batch_normalization_8", 0, 0, {}]]], "class_name": "Activation", "name": "activation_8", "config": {"activation": "relu", "trainable": true, "name": "activation_8"}}, {"inbound_nodes": [[["batch_normalization_10", 0, 0, {}]]], "class_name": "Activation", "name": "activation_10", "config": {"activation": "relu", "trainable": true, "name": "activation_10"}}, {"inbound_nodes": [[["batch_normalization_12", 0, 0, {}]]], "class_name": "Activation", "name": "activation_12", "config": {"activation": "relu", "trainable": true, "name": "activation_12"}}, {"inbound_nodes": [[["batch_normalization_14", 0, 0, {}]]], "class_name": "Activation", "name": "activation_14", "config": {"activation": "relu", "trainable": true, "name": "activation_14"}}, {"inbound_nodes": [[["batch_normalization_16", 0, 0, {}]]], "class_name": "Activation", "name": "activation_16", "config": {"activation": "relu", "trainable": true, "name": "activation_16"}}, {"inbound_nodes": [[["activation_2", 0, 0, {}]]], "class_name": "Conv2D", "name": "conv2d_3", "config": {"bias_constraint": null, "dilation_rate": [1, 1], "bias_initializer": {"class_name": "Zeros", "config": {}}, "kernel_constraint": null, "activation": "linear", "trainable": true, "activity_regularizer": null, "kernel_size": [3, 3], "filters": 64, "name": "conv2d_3", "kernel_regularizer": null, "data_format": "channels_last", "kernel_initializer": {"class_name": "VarianceScaling", "config": {"scale": 1.0, "seed": null, "mode": "fan_avg", "distribution": "uniform"}}, "strides": [1, 1], "use_bias": true, "padding": "same", "bias_regularizer": null}}, {"inbound_nodes": [[["activation_4", 0, 0, {}]]], "class_name": "Conv2D", "name": "conv2d_5", "config": {"bias_constraint": null, "dilation_rate": [1, 1], "bias_initializer": {"class_name": "Zeros", "config": {}}, "kernel_constraint": null, "activation": "linear", "trainable": true, "activity_regularizer": null, "kernel_size": [3, 3], "filters": 64, "name": "conv2d_5", "kernel_regularizer": null, "data_format": "channels_last", "kernel_initializer": {"class_name": "VarianceScaling", "config": {"scale": 1.0, "seed": null, "mode": "fan_avg", "distribution": "uniform"}}, "strides": [1, 1], "use_bias": true, "padding": "same", "bias_regularizer": null}}, {"inbound_nodes": [[["activation_6", 0, 0, {}]]], "class_name": "Conv2D", "name": "conv2d_7", "config": {"bias_constraint": null, "dilation_rate": [1, 1], "bias_initializer": {"class_name": "Zeros", "config": {}}, "kernel_constraint": null, "activation": "linear", "trainable": true, "activity_regularizer": null, "kernel_size": [3, 3], "filters": 64, "name": "conv2d_7", "kernel_regularizer": null, "data_format": "channels_last", "kernel_initializer": {"class_name": "VarianceScaling", "config": {"scale": 1.0, "seed": null, "mode": "fan_avg", "distribution": "uniform"}}, "strides": [1, 1], "use_bias": true, "padding": "same", "bias_regularizer": null}}, {"inbound_nodes": [[["activation_8", 0, 0, {}]]], "class_name": "Conv2D", "name": "conv2d_9", "config": {"bias_constraint": null, "dilation_rate": [1, 1], "bias_initializer": {"class_name": "Zeros", "config": {}}, "kernel_constraint": null, "activation": "linear", "trainable": true, "activity_regularizer": null, "kernel_size": [3, 3], "filters": 64, "name": "conv2d_9", "kernel_regularizer": null, "data_format": "channels_last", "kernel_initializer": {"class_name": "VarianceScaling", "config": {"scale": 1.0, "seed": null, "mode": "fan_avg", "distribution": "uniform"}}, "strides": [1, 1], "use_bias": true, "padding": "same", "bias_regularizer": null}}, {"inbound_nodes": [[["activation_10", 0, 0, {}]]], "class_name": "Conv2D", "name": "conv2d_11", "config": {"bias_constraint": null, "dilation_rate": [1, 1], "bias_initializer": {"class_name": "Zeros", "config": {}}, "kernel_constraint": null, "activation": "linear", "trainable": true, "activity_regularizer": null, "kernel_size": [3, 3], "filters": 64, "name": "conv2d_11", "kernel_regularizer": null, "data_format": "channels_last", "kernel_initializer": {"class_name": "VarianceScaling", "config": {"scale": 1.0, "seed": null, "mode": "fan_avg", "distribution": "uniform"}}, "strides": [1, 1], "use_bias": true, "padding": "same", "bias_regularizer": null}}, {"inbound_nodes": [[["activation_12", 0, 0, {}]]], "class_name": "Conv2D", "name": "conv2d_13", "config": {"bias_constraint": null, "dilation_rate": [1, 1], "bias_initializer": {"class_name": "Zeros", "config": {}}, "kernel_constraint": null, "activation": "linear", "trainable": true, "activity_regularizer": null, "kernel_size": [3, 3], "filters": 64, "name": "conv2d_13", "kernel_regularizer": null, "data_format": "channels_last", "kernel_initializer": {"class_name": "VarianceScaling", "config": {"scale": 1.0, "seed": null, "mode": "fan_avg", "distribution": "uniform"}}, "strides": [1, 1], "use_bias": true, "padding": "same", "bias_regularizer": null}}, {"inbound_nodes": [[["activation_14", 0, 0, {}]]], "class_name": "Conv2D", "name": "conv2d_15", "config": {"bias_constraint": null, "dilation_rate": [1, 1], "bias_initializer": {"class_name": "Zeros", "config": {}}, "kernel_constraint": null, "activation": "linear", "trainable": true, "activity_regularizer": null, "kernel_size": [3, 3], "filters": 64, "name": "conv2d_15", "kernel_regularizer": null, "data_format": "channels_last", "kernel_initializer": {"class_name": "VarianceScaling", "config": {"scale": 1.0, "seed": null, "mode": "fan_avg", "distribution": "uniform"}}, "strides": [1, 1], "use_bias": true, "padding": "same", "bias_regularizer": null}}, {"inbound_nodes": [[["activation_16", 0, 0, {}]]], "class_name": "Conv2D", "name": "conv2d_17", "config": {"bias_constraint": null, "dilation_rate": [1, 1], "bias_initializer": {"class_name": "Zeros", "config": {}}, "kernel_constraint": null, "activation": "linear", "trainable": true, "activity_regularizer": null, "kernel_size": [3, 3], "filters": 64, "name": "conv2d_17", "kernel_regularizer": null, "data_format": "channels_last", "kernel_initializer": {"class_name": "VarianceScaling", "config": {"scale": 1.0, "seed": null, "mode": "fan_avg", "distribution": "uniform"}}, "strides": [1, 1], "use_bias": true, "padding": "same", "bias_regularizer": null}}, {"inbound_nodes": [[["conv2d_3", 0, 0, {}]]], "class_name": "BatchNormalization", "name": "batch_normalization_3", "config": {"epsilon": 0.001, "axis": -1, "moving_variance_initializer": {"class_name": "Ones", "config": {}}, "gamma_regularizer": null, "beta_initializer": {"class_name": "Zeros", "config": {}}, "center": true, "gamma_constraint": null, "moving_mean_initializer": {"class_name": "Zeros", "config": {}}, "beta_regularizer": null, "name": "batch_normalization_3", "scale": true, "gamma_initializer": {"class_name": "Ones", "config": {}}, "beta_constraint": null, "trainable": true, "momentum": 0.99}}, {"inbound_nodes": [[["conv2d_5", 0, 0, {}]]], "class_name": "BatchNormalization", "name": "batch_normalization_5", "config": {"epsilon": 0.001, "axis": -1, "moving_variance_initializer": {"class_name": "Ones", "config": {}}, "gamma_regularizer": null, "beta_initializer": {"class_name": "Zeros", "config": {}}, "center": true, "gamma_constraint": null, "moving_mean_initializer": {"class_name": "Zeros", "config": {}}, "beta_regularizer": null, "name": "batch_normalization_5", "scale": true, "gamma_initializer": {"class_name": "Ones", "config": {}}, "beta_constraint": null, "trainable": true, "momentum": 0.99}}, {"inbound_nodes": [[["conv2d_7", 0, 0, {}]]], "class_name": "BatchNormalization", "name": "batch_normalization_7", "config": {"epsilon": 0.001, "axis": -1, "moving_variance_initializer": {"class_name": "Ones", "config": {}}, "gamma_regularizer": null, "beta_initializer": {"class_name": "Zeros", "config": {}}, "center": true, "gamma_constraint": null, "moving_mean_initializer": {"class_name": "Zeros", "config": {}}, "beta_regularizer": null, "name": "batch_normalization_7", "scale": true, "gamma_initializer": {"class_name": "Ones", "config": {}}, "beta_constraint": null, "trainable": true, "momentum": 0.99}}, {"inbound_nodes": [[["conv2d_9", 0, 0, {}]]], "class_name": "BatchNormalization", "name": "batch_normalization_9", "config": {"epsilon": 0.001, "axis": -1, "moving_variance_initializer": {"class_name": "Ones", "config": {}}, "gamma_regularizer": null, "beta_initializer": {"class_name": "Zeros", "config": {}}, "center": true, "gamma_constraint": null, "moving_mean_initializer": {"class_name": "Zeros", "config": {}}, "beta_regularizer": null, "name": "batch_normalization_9", "scale": true, "gamma_initializer": {"class_name": "Ones", "config": {}}, "beta_constraint": null, "trainable": true, "momentum": 0.99}}, {"inbound_nodes": [[["conv2d_11", 0, 0, {}]]], "class_name": "BatchNormalization", "name": "batch_normalization_11", "config": {"epsilon": 0.001, "axis": -1, "moving_variance_initializer": {"class_name": "Ones", "config": {}}, "gamma_regularizer": null, "beta_initializer": {"class_name": "Zeros", "config": {}}, "center": true, "gamma_constraint": null, "moving_mean_initializer": {"class_name": "Zeros", "config": {}}, "beta_regularizer": null, "name": "batch_normalization_11", "scale": true, "gamma_initializer": {"class_name": "Ones", "config": {}}, "beta_constraint": null, "trainable": true, "momentum": 0.99}}, {"inbound_nodes": [[["conv2d_13", 0, 0, {}]]], "class_name": "BatchNormalization", "name": "batch_normalization_13", "config": {"epsilon": 0.001, "axis": -1, "moving_variance_initializer": {"class_name": "Ones", "config": {}}, "gamma_regularizer": null, "beta_initializer": {"class_name": "Zeros", "config": {}}, "center": true, "gamma_constraint": null, "moving_mean_initializer": {"class_name": "Zeros", "config": {}}, "beta_regularizer": null, "name": "batch_normalization_13", "scale": true, "gamma_initializer": {"class_name": "Ones", "config": {}}, "beta_constraint": null, "trainable": true, "momentum": 0.99}}, {"inbound_nodes": [[["conv2d_15", 0, 0, {}]]], "class_name": "BatchNormalization", "name": "batch_normalization_15", "config": {"epsilon": 0.001, "axis": -1, "moving_variance_initializer": {"class_name": "Ones", "config": {}}, "gamma_regularizer": null, "beta_initializer": {"class_name": "Zeros", "config": {}}, "center": true, "gamma_constraint": null, "moving_mean_initializer": {"class_name": "Zeros", "config": {}}, "beta_regularizer": null, "name": "batch_normalization_15", "scale": true, "gamma_initializer": {"class_name": "Ones", "config": {}}, "beta_constraint": null, "trainable": true, "momentum": 0.99}}, {"inbound_nodes": [[["conv2d_17", 0, 0, {}]]], "class_name": "BatchNormalization", "name": "batch_normalization_17", "config": {"epsilon": 0.001, "axis": -1, "moving_variance_initializer": {"class_name": "Ones", "config": {}}, "gamma_regularizer": null, "beta_initializer": {"class_name": "Zeros", "config": {}}, "center": true, "gamma_constraint": null, "moving_mean_initializer": {"class_name": "Zeros", "config": {}}, "beta_regularizer": null, "name": "batch_normalization_17", "scale": true, "gamma_initializer": {"class_name": "Ones", "config": {}}, "beta_constraint": null, "trainable": true, "momentum": 0.99}}, {"inbound_nodes": [[["batch_normalization_3", 0, 0, {}]]], "class_name": "Activation", "name": "activation_3", "config": {"activation": "relu", "trainable": true, "name": "activation_3"}}, {"inbound_nodes": [[["batch_normalization_5", 0, 0, {}]]], "class_name": "Activation", "name": "activation_5", "config": {"activation": "relu", "trainable": true, "name": "activation_5"}}, {"inbound_nodes": [[["batch_normalization_7", 0, 0, {}]]], "class_name": "Activation", "name": "activation_7", "config": {"activation": "relu", "trainable": true, "name": "activation_7"}}, {"inbound_nodes": [[["batch_normalization_9", 0, 0, {}]]], "class_name": "Activation", "name": "activation_9", "config": {"activation": "relu", "trainable": true, "name": "activation_9"}}, {"inbound_nodes": [[["batch_normalization_11", 0, 0, {}]]], "class_name": "Activation", "name": "activation_11", "config": {"activation": "relu", "trainable": true, "name": "activation_11"}}, {"inbound_nodes": [[["batch_normalization_13", 0, 0, {}]]], "class_name": "Activation", "name": "activation_13", "config": {"activation": "relu", "trainable": true, "name": "activation_13"}}, {"inbound_nodes": [[["batch_normalization_15", 0, 0, {}]]], "class_name": "Activation", "name": "activation_15", "config": {"activation": "relu", "trainable": true, "name": "activation_15"}}, {"inbound_nodes": [[["batch_normalization_17", 0, 0, {}]]], "class_name": "Activation", "name": "activation_17", "config": {"activation": "relu", "trainable": true, "name": "activation_17"}}, {"inbound_nodes": [[["activation_3", 0, 0, {}], ["activation_5", 0, 0, {}], ["activation_7", 0, 0, {}], ["activation_9", 0, 0, {}], ["activation_11", 0, 0, {}], ["activation_13", 0, 0, {}], ["activation_15", 0, 0, {}], ["activation_17", 0, 0, {}]]], "class_name": "Concatenate", "name": "concatenate_1", "config": {"axis": 3, "trainable": true, "name": "concatenate_1"}}, {"inbound_nodes": [[["concatenate_1", 0, 0, {}]]], "class_name": "Conv2D", "name": "conv2d_18", "config": {"bias_constraint": null, "dilation_rate": [1, 1], "bias_initializer": {"class_name": "Zeros", "config": {}}, "kernel_constraint": null, "activation": "linear", "trainable": true, "activity_regularizer": null, "kernel_size": [1, 1], "filters": 64, "name": "conv2d_18", "kernel_regularizer": null, "data_format": "channels_last", "kernel_initializer": {"class_name": "VarianceScaling", "config": {"scale": 1.0, "seed": null, "mode": "fan_avg", "distribution": "uniform"}}, "strides": [1, 1], "use_bias": true, "padding": "same", "bias_regularizer": null}}, {"inbound_nodes": [[["conv2d_18", 0, 0, {}]]], "class_name": "BatchNormalization", "name": "batch_normalization_18", "config": {"epsilon": 0.001, "axis": -1, "moving_variance_initializer": {"class_name": "Ones", "config": {}}, "gamma_regularizer": null, "beta_initializer": {"class_name": "Zeros", "config": {}}, "center": true, "gamma_constraint": null, "moving_mean_initializer": {"class_name": "Zeros", "config": {}}, "beta_regularizer": null, "name": "batch_normalization_18", "scale": true, "gamma_initializer": {"class_name": "Ones", "config": {}}, "beta_constraint": null, "trainable": true, "momentum": 0.99}}, {"inbound_nodes": [[["batch_normalization_18", 0, 0, {}]]], "class_name": "GlobalAveragePooling2D", "name": "global_average_pooling2d_1", "config": {"data_format": "channels_last", "trainable": true, "name": "global_average_pooling2d_1"}}, {"inbound_nodes": [[["global_average_pooling2d_1", 0, 0, {}]]], "class_name": "Dense", "name": "dense_1", "config": {"bias_constraint": null, "kernel_constraint": null, "activation": "linear", "trainable": true, "activity_regularizer": null, "use_bias": true, "bias_regularizer": null, "kernel_regularizer": null, "kernel_initializer": {"class_name": "VarianceScaling", "config": {"scale": 1.0, "seed": null, "mode": "fan_avg", "distribution": "uniform"}}, "units": 16, "name": "dense_1", "bias_initializer": {"class_name": "Zeros", "config": {}}}}, {"inbound_nodes": [[["dense_1", 0, 0, {}]]], "class_name": "Activation", "name": "activation_18", "config": {"activation": "relu", "trainable": true, "name": "activation_18"}}, {"inbound_nodes": [[["activation_18", 0, 0, {}]]], "class_name": "Dense", "name": "dense_2", "config": {"bias_constraint": null, "kernel_constraint": null, "activation": "linear", "trainable": true, "activity_regularizer": null, "use_bias": true, "bias_regularizer": null, "kernel_regularizer": null, "kernel_initializer": {"class_name": "VarianceScaling", "config": {"scale": 1.0, "seed": null, "mode": "fan_avg", "distribution": "uniform"}}, "units": 64, "name": "dense_2", "bias_initializer": {"class_name": "Zeros", "config": {}}}}, {"inbound_nodes": [[["dense_2", 0, 0, {}]]], "class_name": "Activation", "name": "activation_19", "config": {"activation": "sigmoid", "trainable": true, "name": "activation_19"}}, {"inbound_nodes": [[["activation_19", 0, 0, {}]]], "class_name": "Reshape", "name": "reshape_1", "config": {"target_shape": [1, 1, 64], "trainable": true, "name": "reshape_1"}}, {"inbound_nodes": [[["batch_normalization_18", 0, 0, {}], ["reshape_1", 0, 0, {}]]], "class_name": "Multiply", "name": "multiply_1", "config": {"trainable": true, "name": "multiply_1"}}, {"inbound_nodes": [[["activation_1", 0, 0, {}], ["multiply_1", 0, 0, {}]]], "class_name": "Add", "name": "add_1", "config": {"trainable": true, "name": "add_1"}}, {"inbound_nodes": [[["add_1", 0, 0, {}]]], "class_name": "Activation", "name": "activation_20", "config": {"activation": "relu", "trainable": true, "name": "activation_20"}}, {"inbound_nodes": [[["activation_20", 0, 0, {}]]], "class_name": "Conv2D", "name": "conv2d_19", "config": {"bias_constraint": null, "dilation_rate": [1, 1], "bias_initializer": {"class_name": "Zeros", "config": {}}, "kernel_constraint": null, "activation": "linear", "trainable": true, "activity_regularizer": null, "kernel_size": [1, 1], "filters": 64, "name": "conv2d_19", "kernel_regularizer": null, "data_format": "channels_last", "kernel_initializer": {"class_name": "VarianceScaling", "config": {"scale": 1.0, "seed": null, "mode": "fan_avg", "distribution": "uniform"}}, "strides": [1, 1], "use_bias": true, "padding": "same", "bias_regularizer": null}}, {"inbound_nodes": [[["activation_20", 0, 0, {}]]], "class_name": "Conv2D", "name": "conv2d_21", "config": {"bias_constraint": null, "dilation_rate": [1, 1], "bias_initializer": {"class_name": "Zeros", "config": {}}, "kernel_constraint": null, "activation": "linear", "trainable": true, "activity_regularizer": null, "kernel_size": [1, 1], "filters": 64, "name": "conv2d_21", "kernel_regularizer": null, "data_format": "channels_last", "kernel_initializer": {"class_name": "VarianceScaling", "config": {"scale": 1.0, "seed": null, "mode": "fan_avg", "distribution": "uniform"}}, "strides": [1, 1], "use_bias": true, "padding": "same", "bias_regularizer": null}}, {"inbound_nodes": [[["activation_20", 0, 0, {}]]], "class_name": "Conv2D", "name": "conv2d_23", "config": {"bias_constraint": null, "dilation_rate": [1, 1], "bias_initializer": {"class_name": "Zeros", "config": {}}, "kernel_constraint": null, "activation": "linear", "trainable": true, "activity_regularizer": null, "kernel_size": [1, 1], "filters": 64, "name": "conv2d_23", "kernel_regularizer": null, "data_format": "channels_last", "kernel_initializer": {"class_name": "VarianceScaling", "config": {"scale": 1.0, "seed": null, "mode": "fan_avg", "distribution": "uniform"}}, "strides": [1, 1], "use_bias": true, "padding": "same", "bias_regularizer": null}}, {"inbound_nodes": [[["activation_20", 0, 0, {}]]], "class_name": "Conv2D", "name": "conv2d_25", "config": {"bias_constraint": null, "dilation_rate": [1, 1], "bias_initializer": {"class_name": "Zeros", "config": {}}, "kernel_constraint": null, "activation": "linear", "trainable": true, "activity_regularizer": null, "kernel_size": [1, 1], "filters": 64, "name": "conv2d_25", "kernel_regularizer": null, "data_format": "channels_last", "kernel_initializer": {"class_name": "VarianceScaling", "config": {"scale": 1.0, "seed": null, "mode": "fan_avg", "distribution": "uniform"}}, "strides": [1, 1], "use_bias": true, "padding": "same", "bias_regularizer": null}}, {"inbound_nodes": [[["activation_20", 0, 0, {}]]], "class_name": "Conv2D", "name": "conv2d_27", "config": {"bias_constraint": null, "dilation_rate": [1, 1], "bias_initializer": {"class_name": "Zeros", "config": {}}, "kernel_constraint": null, "activation": "linear", "trainable": true, "activity_regularizer": null, "kernel_size": [1, 1], "filters": 64, "name": "conv2d_27", "kernel_regularizer": null, "data_format": "channels_last", "kernel_initializer": {"class_name": "VarianceScaling", "config": {"scale": 1.0, "seed": null, "mode": "fan_avg", "distribution": "uniform"}}, "strides": [1, 1], "use_bias": true, "padding": "same", "bias_regularizer": null}}, {"inbound_nodes": [[["activation_20", 0, 0, {}]]], "class_name": "Conv2D", "name": "conv2d_29", "config": {"bias_constraint": null, "dilation_rate": [1, 1], "bias_initializer": {"class_name": "Zeros", "config": {}}, "kernel_constraint": null, "activation": "linear", "trainable": true, "activity_regularizer": null, "kernel_size": [1, 1], "filters": 64, "name": "conv2d_29", "kernel_regularizer": null, "data_format": "channels_last", "kernel_initializer": {"class_name": "VarianceScaling", "config": {"scale": 1.0, "seed": null, "mode": "fan_avg", "distribution": "uniform"}}, "strides": [1, 1], "use_bias": true, "padding": "same", "bias_regularizer": null}}, {"inbound_nodes": [[["activation_20", 0, 0, {}]]], "class_name": "Conv2D", "name": "conv2d_31", "config": {"bias_constraint": null, "dilation_rate": [1, 1], "bias_initializer": {"class_name": "Zeros", "config": {}}, "kernel_constraint": null, "activation": "linear", "trainable": true, "activity_regularizer": null, "kernel_size": [1, 1], "filters": 64, "name": "conv2d_31", "kernel_regularizer": null, "data_format": "channels_last", "kernel_initializer": {"class_name": "VarianceScaling", "config": {"scale": 1.0, "seed": null, "mode": "fan_avg", "distribution": "uniform"}}, "strides": [1, 1], "use_bias": true, "padding": "same", "bias_regularizer": null}}, {"inbound_nodes": [[["activation_20", 0, 0, {}]]], "class_name": "Conv2D", "name": "conv2d_33", "config": {"bias_constraint": null, "dilation_rate": [1, 1], "bias_initializer": {"class_name": "Zeros", "config": {}}, "kernel_constraint": null, "activation": "linear", "trainable": true, "activity_regularizer": null, "kernel_size": [1, 1], "filters": 64, "name": "conv2d_33", "kernel_regularizer": null, "data_format": "channels_last", "kernel_initializer": {"class_name": "VarianceScaling", "config": {"scale": 1.0, "seed": null, "mode": "fan_avg", "distribution": "uniform"}}, "strides": [1, 1], "use_bias": true, "padding": "same", "bias_regularizer": null}}, {"inbound_nodes": [[["conv2d_19", 0, 0, {}]]], "class_name": "BatchNormalization", "name": "batch_normalization_19", "config": {"epsilon": 0.001, "axis": -1, "moving_variance_initializer": {"class_name": "Ones", "config": {}}, "gamma_regularizer": null, "beta_initializer": {"class_name": "Zeros", "config": {}}, "center": true, "gamma_constraint": null, "moving_mean_initializer": {"class_name": "Zeros", "config": {}}, "beta_regularizer": null, "name": "batch_normalization_19", "scale": true, "gamma_initializer": {"class_name": "Ones", "config": {}}, "beta_constraint": null, "trainable": true, "momentum": 0.99}}, {"inbound_nodes": [[["conv2d_21", 0, 0, {}]]], "class_name": "BatchNormalization", "name": "batch_normalization_21", "config": {"epsilon": 0.001, "axis": -1, "moving_variance_initializer": {"class_name": "Ones", "config": {}}, "gamma_regularizer": null, "beta_initializer": {"class_name": "Zeros", "config": {}}, "center": true, "gamma_constraint": null, "moving_mean_initializer": {"class_name": "Zeros", "config": {}}, "beta_regularizer": null, "name": "batch_normalization_21", "scale": true, "gamma_initializer": {"class_name": "Ones", "config": {}}, "beta_constraint": null, "trainable": true, "momentum": 0.99}}, {"inbound_nodes": [[["conv2d_23", 0, 0, {}]]], "class_name": "BatchNormalization", "name": "batch_normalization_23", "config": {"epsilon": 0.001, "axis": -1, "moving_variance_initializer": {"class_name": "Ones", "config": {}}, "gamma_regularizer": null, "beta_initializer": {"class_name": "Zeros", "config": {}}, "center": true, "gamma_constraint": null, "moving_mean_initializer": {"class_name": "Zeros", "config": {}}, "beta_regularizer": null, "name": "batch_normalization_23", "scale": true, "gamma_initializer": {"class_name": "Ones", "config": {}}, "beta_constraint": null, "trainable": true, "momentum": 0.99}}, {"inbound_nodes": [[["conv2d_25", 0, 0, {}]]], "class_name": "BatchNormalization", "name": "batch_normalization_25", "config": {"epsilon": 0.001, "axis": -1, "moving_variance_initializer": {"class_name": "Ones", "config": {}}, "gamma_regularizer": null, "beta_initializer": {"class_name": "Zeros", "config": {}}, "center": true, "gamma_constraint": null, "moving_mean_initializer": {"class_name": "Zeros", "config": {}}, "beta_regularizer": null, "name": "batch_normalization_25", "scale": true, "gamma_initializer": {"class_name": "Ones", "config": {}}, "beta_constraint": null, "trainable": true, "momentum": 0.99}}, {"inbound_nodes": [[["conv2d_27", 0, 0, {}]]], "class_name": "BatchNormalization", "name": "batch_normalization_27", "config": {"epsilon": 0.001, "axis": -1, "moving_variance_initializer": {"class_name": "Ones", "config": {}}, "gamma_regularizer": null, "beta_initializer": {"class_name": "Zeros", "config": {}}, "center": true, "gamma_constraint": null, "moving_mean_initializer": {"class_name": "Zeros", "config": {}}, "beta_regularizer": null, "name": "batch_normalization_27", "scale": true, "gamma_initializer": {"class_name": "Ones", "config": {}}, "beta_constraint": null, "trainable": true, "momentum": 0.99}}, {"inbound_nodes": [[["conv2d_29", 0, 0, {}]]], "class_name": "BatchNormalization", "name": "batch_normalization_29", "config": {"epsilon": 0.001, "axis": -1, "moving_variance_initializer": {"class_name": "Ones", "config": {}}, "gamma_regularizer": null, "beta_initializer": {"class_name": "Zeros", "config": {}}, "center": true, "gamma_constraint": null, "moving_mean_initializer": {"class_name": "Zeros", "config": {}}, "beta_regularizer": null, "name": "batch_normalization_29", "scale": true, "gamma_initializer": {"class_name": "Ones", "config": {}}, "beta_constraint": null, "trainable": true, "momentum": 0.99}}, {"inbound_nodes": [[["conv2d_31", 0, 0, {}]]], "class_name": "BatchNormalization", "name": "batch_normalization_31", "config": {"epsilon": 0.001, "axis": -1, "moving_variance_initializer": {"class_name": "Ones", "config": {}}, "gamma_regularizer": null, "beta_initializer": {"class_name": "Zeros", "config": {}}, "center": true, "gamma_constraint": null, "moving_mean_initializer": {"class_name": "Zeros", "config": {}}, "beta_regularizer": null, "name": "batch_normalization_31", "scale": true, "gamma_initializer": {"class_name": "Ones", "config": {}}, "beta_constraint": null, "trainable": true, "momentum": 0.99}}, {"inbound_nodes": [[["conv2d_33", 0, 0, {}]]], "class_name": "BatchNormalization", "name": "batch_normalization_33", "config": {"epsilon": 0.001, "axis": -1, "moving_variance_initializer": {"class_name": "Ones", "config": {}}, "gamma_regularizer": null, "beta_initializer": {"class_name": "Zeros", "config": {}}, "center": true, "gamma_constraint": null, "moving_mean_initializer": {"class_name": "Zeros", "config": {}}, "beta_regularizer": null, "name": "batch_normalization_33", "scale": true, "gamma_initializer": {"class_name": "Ones", "config": {}}, "beta_constraint": null, "trainable": true, "momentum": 0.99}}, {"inbound_nodes": [[["batch_normalization_19", 0, 0, {}]]], "class_name": "Activation", "name": "activation_21", "config": {"activation": "relu", "trainable": true, "name": "activation_21"}}, {"inbound_nodes": [[["batch_normalization_21", 0, 0, {}]]], "class_name": "Activation", "name": "activation_23", "config": {"activation": "relu", "trainable": true, "name": "activation_23"}}, {"inbound_nodes": [[["batch_normalization_23", 0, 0, {}]]], "class_name": "Activation", "name": "activation_25", "config": {"activation": "relu", "trainable": true, "name": "activation_25"}}, {"inbound_nodes": [[["batch_normalization_25", 0, 0, {}]]], "class_name": "Activation", "name": "activation_27", "config": {"activation": "relu", "trainable": true, "name": "activation_27"}}, {"inbound_nodes": [[["batch_normalization_27", 0, 0, {}]]], "class_name": "Activation", "name": "activation_29", "config": {"activation": "relu", "trainable": true, "name": "activation_29"}}, {"inbound_nodes": [[["batch_normalization_29", 0, 0, {}]]], "class_name": "Activation", "name": "activation_31", "config": {"activation": "relu", "trainable": true, "name": "activation_31"}}, {"inbound_nodes": [[["batch_normalization_31", 0, 0, {}]]], "class_name": "Activation", "name": "activation_33", "config": {"activation": "relu", "trainable": true, "name": "activation_33"}}, {"inbound_nodes": [[["batch_normalization_33", 0, 0, {}]]], "class_name": "Activation", "name": "activation_35", "config": {"activation": "relu", "trainable": true, "name": "activation_35"}}, {"inbound_nodes": [[["activation_21", 0, 0, {}]]], "class_name": "Conv2D", "name": "conv2d_20", "config": {"bias_constraint": null, "dilation_rate": [1, 1], "bias_initializer": {"class_name": "Zeros", "config": {}}, "kernel_constraint": null, "activation": "linear", "trainable": true, "activity_regularizer": null, "kernel_size": [3, 3], "filters": 64, "name": "conv2d_20", "kernel_regularizer": null, "data_format": "channels_last", "kernel_initializer": {"class_name": "VarianceScaling", "config": {"scale": 1.0, "seed": null, "mode": "fan_avg", "distribution": "uniform"}}, "strides": [1, 1], "use_bias": true, "padding": "same", "bias_regularizer": null}}, {"inbound_nodes": [[["activation_23", 0, 0, {}]]], "class_name": "Conv2D", "name": "conv2d_22", "config": {"bias_constraint": null, "dilation_rate": [1, 1], "bias_initializer": {"class_name": "Zeros", "config": {}}, "kernel_constraint": null, "activation": "linear", "trainable": true, "activity_regularizer": null, "kernel_size": [3, 3], "filters": 64, "name": "conv2d_22", "kernel_regularizer": null, "data_format": "channels_last", "kernel_initializer": {"class_name": "VarianceScaling", "config": {"scale": 1.0, "seed": null, "mode": "fan_avg", "distribution": "uniform"}}, "strides": [1, 1], "use_bias": true, "padding": "same", "bias_regularizer": null}}, {"inbound_nodes": [[["activation_25", 0, 0, {}]]], "class_name": "Conv2D", "name": "conv2d_24", "config": {"bias_constraint": null, "dilation_rate": [1, 1], "bias_initializer": {"class_name": "Zeros", "config": {}}, "kernel_constraint": null, "activation": "linear", "trainable": true, "activity_regularizer": null, "kernel_size": [3, 3], "filters": 64, "name": "conv2d_24", "kernel_regularizer": null, "data_format": "channels_last", "kernel_initializer": {"class_name": "VarianceScaling", "config": {"scale": 1.0, "seed": null, "mode": "fan_avg", "distribution": "uniform"}}, "strides": [1, 1], "use_bias": true, "padding": "same", "bias_regularizer": null}}, {"inbound_nodes": [[["activation_27", 0, 0, {}]]], "class_name": "Conv2D", "name": "conv2d_26", "config": {"bias_constraint": null, "dilation_rate": [1, 1], "bias_initializer": {"class_name": "Zeros", "config": {}}, "kernel_constraint": null, "activation": "linear", "trainable": true, "activity_regularizer": null, "kernel_size": [3, 3], "filters": 64, "name": "conv2d_26", "kernel_regularizer": null, "data_format": "channels_last", "kernel_initializer": {"class_name": "VarianceScaling", "config": {"scale": 1.0, "seed": null, "mode": "fan_avg", "distribution": "uniform"}}, "strides": [1, 1], "use_bias": true, "padding": "same", "bias_regularizer": null}}, {"inbound_nodes": [[["activation_29", 0, 0, {}]]], "class_name": "Conv2D", "name": "conv2d_28", "config": {"bias_constraint": null, "dilation_rate": [1, 1], "bias_initializer": {"class_name": "Zeros", "config": {}}, "kernel_constraint": null, "activation": "linear", "trainable": true, "activity_regularizer": null, "kernel_size": [3, 3], "filters": 64, "name": "conv2d_28", "kernel_regularizer": null, "data_format": "channels_last", "kernel_initializer": {"class_name": "VarianceScaling", "config": {"scale": 1.0, "seed": null, "mode": "fan_avg", "distribution": "uniform"}}, "strides": [1, 1], "use_bias": true, "padding": "same", "bias_regularizer": null}}, {"inbound_nodes": [[["activation_31", 0, 0, {}]]], "class_name": "Conv2D", "name": "conv2d_30", "config": {"bias_constraint": null, "dilation_rate": [1, 1], "bias_initializer": {"class_name": "Zeros", "config": {}}, "kernel_constraint": null, "activation": "linear", "trainable": true, "activity_regularizer": null, "kernel_size": [3, 3], "filters": 64, "name": "conv2d_30", "kernel_regularizer": null, "data_format": "channels_last", "kernel_initializer": {"class_name": "VarianceScaling", "config": {"scale": 1.0, "seed": null, "mode": "fan_avg", "distribution": "uniform"}}, "strides": [1, 1], "use_bias": true, "padding": "same", "bias_regularizer": null}}, {"inbound_nodes": [[["activation_33", 0, 0, {}]]], "class_name": "Conv2D", "name": "conv2d_32", "config": {"bias_constraint": null, "dilation_rate": [1, 1], "bias_initializer": {"class_name": "Zeros", "config": {}}, "kernel_constraint": null, "activation": "linear", "trainable": true, "activity_regularizer": null, "kernel_size": [3, 3], "filters": 64, "name": "conv2d_32", "kernel_regularizer": null, "data_format": "channels_last", "kernel_initializer": {"class_name": "VarianceScaling", "config": {"scale": 1.0, "seed": null, "mode": "fan_avg", "distribution": "uniform"}}, "strides": [1, 1], "use_bias": true, "padding": "same", "bias_regularizer": null}}, {"inbound_nodes": [[["activation_35", 0, 0, {}]]], "class_name": "Conv2D", "name": "conv2d_34", "config": {"bias_constraint": null, "dilation_rate": [1, 1], "bias_initializer": {"class_name": "Zeros", "config": {}}, "kernel_constraint": null, "activation": "linear", "trainable": true, "activity_regularizer": null, "kernel_size": [3, 3], "filters": 64, "name": "conv2d_34", "kernel_regularizer": null, "data_format": "channels_last", "kernel_initializer": {"class_name": "VarianceScaling", "config": {"scale": 1.0, "seed": null, "mode": "fan_avg", "distribution": "uniform"}}, "strides": [1, 1], "use_bias": true, "padding": "same", "bias_regularizer": null}}, {"inbound_nodes": [[["conv2d_20", 0, 0, {}]]], "class_name": "BatchNormalization", "name": "batch_normalization_20", "config": {"epsilon": 0.001, "axis": -1, "moving_variance_initializer": {"class_name": "Ones", "config": {}}, "gamma_regularizer": null, "beta_initializer": {"class_name": "Zeros", "config": {}}, "center": true, "gamma_constraint": null, "moving_mean_initializer": {"class_name": "Zeros", "config": {}}, "beta_regularizer": null, "name": "batch_normalization_20", "scale": true, "gamma_initializer": {"class_name": "Ones", "config": {}}, "beta_constraint": null, "trainable": true, "momentum": 0.99}}, {"inbound_nodes": [[["conv2d_22", 0, 0, {}]]], "class_name": "BatchNormalization", "name": "batch_normalization_22", "config": {"epsilon": 0.001, "axis": -1, "moving_variance_initializer": {"class_name": "Ones", "config": {}}, "gamma_regularizer": null, "beta_initializer": {"class_name": "Zeros", "config": {}}, "center": true, "gamma_constraint": null, "moving_mean_initializer": {"class_name": "Zeros", "config": {}}, "beta_regularizer": null, "name": "batch_normalization_22", "scale": true, "gamma_initializer": {"class_name": "Ones", "config": {}}, "beta_constraint": null, "trainable": true, "momentum": 0.99}}, {"inbound_nodes": [[["conv2d_24", 0, 0, {}]]], "class_name": "BatchNormalization", "name": "batch_normalization_24", "config": {"epsilon": 0.001, "axis": -1, "moving_variance_initializer": {"class_name": "Ones", "config": {}}, "gamma_regularizer": null, "beta_initializer": {"class_name": "Zeros", "config": {}}, "center": true, "gamma_constraint": null, "moving_mean_initializer": {"class_name": "Zeros", "config": {}}, "beta_regularizer": null, "name": "batch_normalization_24", "scale": true, "gamma_initializer": {"class_name": "Ones", "config": {}}, "beta_constraint": null, "trainable": true, "momentum": 0.99}}, {"inbound_nodes": [[["conv2d_26", 0, 0, {}]]], "class_name": "BatchNormalization", "name": "batch_normalization_26", "config": {"epsilon": 0.001, "axis": -1, "moving_variance_initializer": {"class_name": "Ones", "config": {}}, "gamma_regularizer": null, "beta_initializer": {"class_name": "Zeros", "config": {}}, "center": true, "gamma_constraint": null, "moving_mean_initializer": {"class_name": "Zeros", "config": {}}, "beta_regularizer": null, "name": "batch_normalization_26", "scale": true, "gamma_initializer": {"class_name": "Ones", "config": {}}, "beta_constraint": null, "trainable": true, "momentum": 0.99}}, {"inbound_nodes": [[["conv2d_28", 0, 0, {}]]], "class_name": "BatchNormalization", "name": "batch_normalization_28", "config": {"epsilon": 0.001, "axis": -1, "moving_variance_initializer": {"class_name": "Ones", "config": {}}, "gamma_regularizer": null, "beta_initializer": {"class_name": "Zeros", "config": {}}, "center": true, "gamma_constraint": null, "moving_mean_initializer": {"class_name": "Zeros", "config": {}}, "beta_regularizer": null, "name": "batch_normalization_28", "scale": true, "gamma_initializer": {"class_name": "Ones", "config": {}}, "beta_constraint": null, "trainable": true, "momentum": 0.99}}, {"inbound_nodes": [[["conv2d_30", 0, 0, {}]]], "class_name": "BatchNormalization", "name": "batch_normalization_30", "config": {"epsilon": 0.001, "axis": -1, "moving_variance_initializer": {"class_name": "Ones", "config": {}}, "gamma_regularizer": null, "beta_initializer": {"class_name": "Zeros", "config": {}}, "center": true, "gamma_constraint": null, "moving_mean_initializer": {"class_name": "Zeros", "config": {}}, "beta_regularizer": null, "name": "batch_normalization_30", "scale": true, "gamma_initializer": {"class_name": "Ones", "config": {}}, "beta_constraint": null, "trainable": true, "momentum": 0.99}}, {"inbound_nodes": [[["conv2d_32", 0, 0, {}]]], "class_name": "BatchNormalization", "name": "batch_normalization_32", "config": {"epsilon": 0.001, "axis": -1, "moving_variance_initializer": {"class_name": "Ones", "config": {}}, "gamma_regularizer": null, "beta_initializer": {"class_name": "Zeros", "config": {}}, "center": true, "gamma_constraint": null, "moving_mean_initializer": {"class_name": "Zeros", "config": {}}, "beta_regularizer": null, "name": "batch_normalization_32", "scale": true, "gamma_initializer": {"class_name": "Ones", "config": {}}, "beta_constraint": null, "trainable": true, "momentum": 0.99}}, {"inbound_nodes": [[["conv2d_34", 0, 0, {}]]], "class_name": "BatchNormalization", "name": "batch_normalization_34", "config": {"epsilon": 0.001, "axis": -1, "moving_variance_initializer": {"class_name": "Ones", "config": {}}, "gamma_regularizer": null, "beta_initializer": {"class_name": "Zeros", "config": {}}, "center": true, "gamma_constraint": null, "moving_mean_initializer": {"class_name": "Zeros", "config": {}}, "beta_regularizer": null, "name": "batch_normalization_34", "scale": true, "gamma_initializer": {"class_name": "Ones", "config": {}}, "beta_constraint": null, "trainable": true, "momentum": 0.99}}, {"inbound_nodes": [[["batch_normalization_20", 0, 0, {}]]], "class_name": "Activation", "name": "activation_22", "config": {"activation": "relu", "trainable": true, "name": "activation_22"}}, {"inbound_nodes": [[["batch_normalization_22", 0, 0, {}]]], "class_name": "Activation", "name": "activation_24", "config": {"activation": "relu", "trainable": true, "name": "activation_24"}}, {"inbound_nodes": [[["batch_normalization_24", 0, 0, {}]]], "class_name": "Activation", "name": "activation_26", "config": {"activation": "relu", "trainable": true, "name": "activation_26"}}, {"inbound_nodes": [[["batch_normalization_26", 0, 0, {}]]], "class_name": "Activation", "name": "activation_28", "config": {"activation": "relu", "trainable": true, "name": "activation_28"}}, {"inbound_nodes": [[["batch_normalization_28", 0, 0, {}]]], "class_name": "Activation", "name": "activation_30", "config": {"activation": "relu", "trainable": true, "name": "activation_30"}}, {"inbound_nodes": [[["batch_normalization_30", 0, 0, {}]]], "class_name": "Activation", "name": "activation_32", "config": {"activation": "relu", "trainable": true, "name": "activation_32"}}, {"inbound_nodes": [[["batch_normalization_32", 0, 0, {}]]], "class_name": "Activation", "name": "activation_34", "config": {"activation": "relu", "trainable": true, "name": "activation_34"}}, {"inbound_nodes": [[["batch_normalization_34", 0, 0, {}]]], "class_name": "Activation", "name": "activation_36", "config": {"activation": "relu", "trainable": true, "name": "activation_36"}}, {"inbound_nodes": [[["activation_22", 0, 0, {}], ["activation_24", 0, 0, {}], ["activation_26", 0, 0, {}], ["activation_28", 0, 0, {}], ["activation_30", 0, 0, {}], ["activation_32", 0, 0, {}], ["activation_34", 0, 0, {}], ["activation_36", 0, 0, {}]]], "class_name": "Concatenate", "name": "concatenate_2", "config": {"axis": 3, "trainable": true, "name": "concatenate_2"}}, {"inbound_nodes": [[["concatenate_2", 0, 0, {}]]], "class_name": "Conv2D", "name": "conv2d_35", "config": {"bias_constraint": null, "dilation_rate": [1, 1], "bias_initializer": {"class_name": "Zeros", "config": {}}, "kernel_constraint": null, "activation": "linear", "trainable": true, "activity_regularizer": null, "kernel_size": [1, 1], "filters": 64, "name": "conv2d_35", "kernel_regularizer": null, "data_format": "channels_last", "kernel_initializer": {"class_name": "VarianceScaling", "config": {"scale": 1.0, "seed": null, "mode": "fan_avg", "distribution": "uniform"}}, "strides": [1, 1], "use_bias": true, "padding": "same", "bias_regularizer": null}}, {"inbound_nodes": [[["conv2d_35", 0, 0, {}]]], "class_name": "BatchNormalization", "name": "batch_normalization_35", "config": {"epsilon": 0.001, "axis": -1, "moving_variance_initializer": {"class_name": "Ones", "config": {}}, "gamma_regularizer": null, "beta_initializer": {"class_name": "Zeros", "config": {}}, "center": true, "gamma_constraint": null, "moving_mean_initializer": {"class_name": "Zeros", "config": {}}, "beta_regularizer": null, "name": "batch_normalization_35", "scale": true, "gamma_initializer": {"class_name": "Ones", "config": {}}, "beta_constraint": null, "trainable": true, "momentum": 0.99}}, {"inbound_nodes": [[["batch_normalization_35", 0, 0, {}]]], "class_name": "GlobalAveragePooling2D", "name": "global_average_pooling2d_2", "config": {"data_format": "channels_last", "trainable": true, "name": "global_average_pooling2d_2"}}, {"inbound_nodes": [[["global_average_pooling2d_2", 0, 0, {}]]], "class_name": "Dense", "name": "dense_3", "config": {"bias_constraint": null, "kernel_constraint": null, "activation": "linear", "trainable": true, "activity_regularizer": null, "use_bias": true, "bias_regularizer": null, "kernel_regularizer": null, "kernel_initializer": {"class_name": "VarianceScaling", "config": {"scale": 1.0, "seed": null, "mode": "fan_avg", "distribution": "uniform"}}, "units": 16, "name": "dense_3", "bias_initializer": {"class_name": "Zeros", "config": {}}}}, {"inbound_nodes": [[["dense_3", 0, 0, {}]]], "class_name": "Activation", "name": "activation_37", "config": {"activation": "relu", "trainable": true, "name": "activation_37"}}, {"inbound_nodes": [[["activation_37", 0, 0, {}]]], "class_name": "Dense", "name": "dense_4", "config": {"bias_constraint": null, "kernel_constraint": null, "activation": "linear", "trainable": true, "activity_regularizer": null, "use_bias": true, "bias_regularizer": null, "kernel_regularizer": null, "kernel_initializer": {"class_name": "VarianceScaling", "config": {"scale": 1.0, "seed": null, "mode": "fan_avg", "distribution": "uniform"}}, "units": 64, "name": "dense_4", "bias_initializer": {"class_name": "Zeros", "config": {}}}}, {"inbound_nodes": [[["dense_4", 0, 0, {}]]], "class_name": "Activation", "name": "activation_38", "config": {"activation": "sigmoid", "trainable": true, "name": "activation_38"}}, {"inbound_nodes": [[["activation_38", 0, 0, {}]]], "class_name": "Reshape", "name": "reshape_2", "config": {"target_shape": [1, 1, 64], "trainable": true, "name": "reshape_2"}}, {"inbound_nodes": [[["batch_normalization_35", 0, 0, {}], ["reshape_2", 0, 0, {}]]], "class_name": "Multiply", "name": "multiply_2", "config": {"trainable": true, "name": "multiply_2"}}, {"inbound_nodes": [[["activation_20", 0, 0, {}], ["multiply_2", 0, 0, {}]]], "class_name": "Add", "name": "add_2", "config": {"trainable": true, "name": "add_2"}}, {"inbound_nodes": [[["add_2", 0, 0, {}]]], "class_name": "Activation", "name": "activation_39", "config": {"activation": "relu", "trainable": true, "name": "activation_39"}}, {"inbound_nodes": [[["activation_39", 0, 0, {}]]], "class_name": "Conv2D", "name": "conv2d_36", "config": {"bias_constraint": null, "dilation_rate": [1, 1], "bias_initializer": {"class_name": "Zeros", "config": {}}, "kernel_constraint": null, "activation": "linear", "trainable": true, "activity_regularizer": null, "kernel_size": [1, 1], "filters": 64, "name": "conv2d_36", "kernel_regularizer": null, "data_format": "channels_last", "kernel_initializer": {"class_name": "VarianceScaling", "config": {"scale": 1.0, "seed": null, "mode": "fan_avg", "distribution": "uniform"}}, "strides": [1, 1], "use_bias": true, "padding": "same", "bias_regularizer": null}}, {"inbound_nodes": [[["activation_39", 0, 0, {}]]], "class_name": "Conv2D", "name": "conv2d_38", "config": {"bias_constraint": null, "dilation_rate": [1, 1], "bias_initializer": {"class_name": "Zeros", "config": {}}, "kernel_constraint": null, "activation": "linear", "trainable": true, "activity_regularizer": null, "kernel_size": [1, 1], "filters": 64, "name": "conv2d_38", "kernel_regularizer": null, "data_format": "channels_last", "kernel_initializer": {"class_name": "VarianceScaling", "config": {"scale": 1.0, "seed": null, "mode": "fan_avg", "distribution": "uniform"}}, "strides": [1, 1], "use_bias": true, "padding": "same", "bias_regularizer": null}}, {"inbound_nodes": [[["activation_39", 0, 0, {}]]], "class_name": "Conv2D", "name": "conv2d_40", "config": {"bias_constraint": null, "dilation_rate": [1, 1], "bias_initializer": {"class_name": "Zeros", "config": {}}, "kernel_constraint": null, "activation": "linear", "trainable": true, "activity_regularizer": null, "kernel_size": [1, 1], "filters": 64, "name": "conv2d_40", "kernel_regularizer": null, "data_format": "channels_last", "kernel_initializer": {"class_name": "VarianceScaling", "config": {"scale": 1.0, "seed": null, "mode": "fan_avg", "distribution": "uniform"}}, "strides": [1, 1], "use_bias": true, "padding": "same", "bias_regularizer": null}}, {"inbound_nodes": [[["activation_39", 0, 0, {}]]], "class_name": "Conv2D", "name": "conv2d_42", "config": {"bias_constraint": null, "dilation_rate": [1, 1], "bias_initializer": {"class_name": "Zeros", "config": {}}, "kernel_constraint": null, "activation": "linear", "trainable": true, "activity_regularizer": null, "kernel_size": [1, 1], "filters": 64, "name": "conv2d_42", "kernel_regularizer": null, "data_format": "channels_last", "kernel_initializer": {"class_name": "VarianceScaling", "config": {"scale": 1.0, "seed": null, "mode": "fan_avg", "distribution": "uniform"}}, "strides": [1, 1], "use_bias": true, "padding": "same", "bias_regularizer": null}}, {"inbound_nodes": [[["activation_39", 0, 0, {}]]], "class_name": "Conv2D", "name": "conv2d_44", "config": {"bias_constraint": null, "dilation_rate": [1, 1], "bias_initializer": {"class_name": "Zeros", "config": {}}, "kernel_constraint": null, "activation": "linear", "trainable": true, "activity_regularizer": null, "kernel_size": [1, 1], "filters": 64, "name": "conv2d_44", "kernel_regularizer": null, "data_format": "channels_last", "kernel_initializer": {"class_name": "VarianceScaling", "config": {"scale": 1.0, "seed": null, "mode": "fan_avg", "distribution": "uniform"}}, "strides": [1, 1], "use_bias": true, "padding": "same", "bias_regularizer": null}}, {"inbound_nodes": [[["activation_39", 0, 0, {}]]], "class_name": "Conv2D", "name": "conv2d_46", "config": {"bias_constraint": null, "dilation_rate": [1, 1], "bias_initializer": {"class_name": "Zeros", "config": {}}, "kernel_constraint": null, "activation": "linear", "trainable": true, "activity_regularizer": null, "kernel_size": [1, 1], "filters": 64, "name": "conv2d_46", "kernel_regularizer": null, "data_format": "channels_last", "kernel_initializer": {"class_name": "VarianceScaling", "config": {"scale": 1.0, "seed": null, "mode": "fan_avg", "distribution": "uniform"}}, "strides": [1, 1], "use_bias": true, "padding": "same", "bias_regularizer": null}}, {"inbound_nodes": [[["activation_39", 0, 0, {}]]], "class_name": "Conv2D", "name": "conv2d_48", "config": {"bias_constraint": null, "dilation_rate": [1, 1], "bias_initializer": {"class_name": "Zeros", "config": {}}, "kernel_constraint": null, "activation": "linear", "trainable": true, "activity_regularizer": null, "kernel_size": [1, 1], "filters": 64, "name": "conv2d_48", "kernel_regularizer": null, "data_format": "channels_last", "kernel_initializer": {"class_name": "VarianceScaling", "config": {"scale": 1.0, "seed": null, "mode": "fan_avg", "distribution": "uniform"}}, "strides": [1, 1], "use_bias": true, "padding": "same", "bias_regularizer": null}}, {"inbound_nodes": [[["activation_39", 0, 0, {}]]], "class_name": "Conv2D", "name": "conv2d_50", "config": {"bias_constraint": null, "dilation_rate": [1, 1], "bias_initializer": {"class_name": "Zeros", "config": {}}, "kernel_constraint": null, "activation": "linear", "trainable": true, "activity_regularizer": null, "kernel_size": [1, 1], "filters": 64, "name": "conv2d_50", "kernel_regularizer": null, "data_format": "channels_last", "kernel_initializer": {"class_name": "VarianceScaling", "config": {"scale": 1.0, "seed": null, "mode": "fan_avg", "distribution": "uniform"}}, "strides": [1, 1], "use_bias": true, "padding": "same", "bias_regularizer": null}}, {"inbound_nodes": [[["conv2d_36", 0, 0, {}]]], "class_name": "BatchNormalization", "name": "batch_normalization_36", "config": {"epsilon": 0.001, "axis": -1, "moving_variance_initializer": {"class_name": "Ones", "config": {}}, "gamma_regularizer": null, "beta_initializer": {"class_name": "Zeros", "config": {}}, "center": true, "gamma_constraint": null, "moving_mean_initializer": {"class_name": "Zeros", "config": {}}, "beta_regularizer": null, "name": "batch_normalization_36", "scale": true, "gamma_initializer": {"class_name": "Ones", "config": {}}, "beta_constraint": null, "trainable": true, "momentum": 0.99}}, {"inbound_nodes": [[["conv2d_38", 0, 0, {}]]], "class_name": "BatchNormalization", "name": "batch_normalization_38", "config": {"epsilon": 0.001, "axis": -1, "moving_variance_initializer": {"class_name": "Ones", "config": {}}, "gamma_regularizer": null, "beta_initializer": {"class_name": "Zeros", "config": {}}, "center": true, "gamma_constraint": null, "moving_mean_initializer": {"class_name": "Zeros", "config": {}}, "beta_regularizer": null, "name": "batch_normalization_38", "scale": true, "gamma_initializer": {"class_name": "Ones", "config": {}}, "beta_constraint": null, "trainable": true, "momentum": 0.99}}, {"inbound_nodes": [[["conv2d_40", 0, 0, {}]]], "class_name": "BatchNormalization", "name": "batch_normalization_40", "config": {"epsilon": 0.001, "axis": -1, "moving_variance_initializer": {"class_name": "Ones", "config": {}}, "gamma_regularizer": null, "beta_initializer": {"class_name": "Zeros", "config": {}}, "center": true, "gamma_constraint": null, "moving_mean_initializer": {"class_name": "Zeros", "config": {}}, "beta_regularizer": null, "name": "batch_normalization_40", "scale": true, "gamma_initializer": {"class_name": "Ones", "config": {}}, "beta_constraint": null, "trainable": true, "momentum": 0.99}}, {"inbound_nodes": [[["conv2d_42", 0, 0, {}]]], "class_name": "BatchNormalization", "name": "batch_normalization_42", "config": {"epsilon": 0.001, "axis": -1, "moving_variance_initializer": {"class_name": "Ones", "config": {}}, "gamma_regularizer": null, "beta_initializer": {"class_name": "Zeros", "config": {}}, "center": true, "gamma_constraint": null, "moving_mean_initializer": {"class_name": "Zeros", "config": {}}, "beta_regularizer": null, "name": "batch_normalization_42", "scale": true, "gamma_initializer": {"class_name": "Ones", "config": {}}, "beta_constraint": null, "trainable": true, "momentum": 0.99}}, {"inbound_nodes": [[["conv2d_44", 0, 0, {}]]], "class_name": "BatchNormalization", "name": "batch_normalization_44", "config": {"epsilon": 0.001, "axis": -1, "moving_variance_initializer": {"class_name": "Ones", "config": {}}, "gamma_regularizer": null, "beta_initializer": {"class_name": "Zeros", "config": {}}, "center": true, "gamma_constraint": null, "moving_mean_initializer": {"class_name": "Zeros", "config": {}}, "beta_regularizer": null, "name": "batch_normalization_44", "scale": true, "gamma_initializer": {"class_name": "Ones", "config": {}}, "beta_constraint": null, "trainable": true, "momentum": 0.99}}, {"inbound_nodes": [[["conv2d_46", 0, 0, {}]]], "class_name": "BatchNormalization", "name": "batch_normalization_46", "config": {"epsilon": 0.001, "axis": -1, "moving_variance_initializer": {"class_name": "Ones", "config": {}}, "gamma_regularizer": null, "beta_initializer": {"class_name": "Zeros", "config": {}}, "center": true, "gamma_constraint": null, "moving_mean_initializer": {"class_name": "Zeros", "config": {}}, "beta_regularizer": null, "name": "batch_normalization_46", "scale": true, "gamma_initializer": {"class_name": "Ones", "config": {}}, "beta_constraint": null, "trainable": true, "momentum": 0.99}}, {"inbound_nodes": [[["conv2d_48", 0, 0, {}]]], "class_name": "BatchNormalization", "name": "batch_normalization_48", "config": {"epsilon": 0.001, "axis": -1, "moving_variance_initializer": {"class_name": "Ones", "config": {}}, "gamma_regularizer": null, "beta_initializer": {"class_name": "Zeros", "config": {}}, "center": true, "gamma_constraint": null, "moving_mean_initializer": {"class_name": "Zeros", "config": {}}, "beta_regularizer": null, "name": "batch_normalization_48", "scale": true, "gamma_initializer": {"class_name": "Ones", "config": {}}, "beta_constraint": null, "trainable": true, "momentum": 0.99}}, {"inbound_nodes": [[["conv2d_50", 0, 0, {}]]], "class_name": "BatchNormalization", "name": "batch_normalization_50", "config": {"epsilon": 0.001, "axis": -1, "moving_variance_initializer": {"class_name": "Ones", "config": {}}, "gamma_regularizer": null, "beta_initializer": {"class_name": "Zeros", "config": {}}, "center": true, "gamma_constraint": null, "moving_mean_initializer": {"class_name": "Zeros", "config": {}}, "beta_regularizer": null, "name": "batch_normalization_50", "scale": true, "gamma_initializer": {"class_name": "Ones", "config": {}}, "beta_constraint": null, "trainable": true, "momentum": 0.99}}, {"inbound_nodes": [[["batch_normalization_36", 0, 0, {}]]], "class_name": "Activation", "name": "activation_40", "config": {"activation": "relu", "trainable": true, "name": "activation_40"}}, {"inbound_nodes": [[["batch_normalization_38", 0, 0, {}]]], "class_name": "Activation", "name": "activation_42", "config": {"activation": "relu", "trainable": true, "name": "activation_42"}}, {"inbound_nodes": [[["batch_normalization_40", 0, 0, {}]]], "class_name": "Activation", "name": "activation_44", "config": {"activation": "relu", "trainable": true, "name": "activation_44"}}, {"inbound_nodes": [[["batch_normalization_42", 0, 0, {}]]], "class_name": "Activation", "name": "activation_46", "config": {"activation": "relu", "trainable": true, "name": "activation_46"}}, {"inbound_nodes": [[["batch_normalization_44", 0, 0, {}]]], "class_name": "Activation", "name": "activation_48", "config": {"activation": "relu", "trainable": true, "name": "activation_48"}}, {"inbound_nodes": [[["batch_normalization_46", 0, 0, {}]]], "class_name": "Activation", "name": "activation_50", "config": {"activation": "relu", "trainable": true, "name": "activation_50"}}, {"inbound_nodes": [[["batch_normalization_48", 0, 0, {}]]], "class_name": "Activation", "name": "activation_52", "config": {"activation": "relu", "trainable": true, "name": "activation_52"}}, {"inbound_nodes": [[["batch_normalization_50", 0, 0, {}]]], "class_name": "Activation", "name": "activation_54", "config": {"activation": "relu", "trainable": true, "name": "activation_54"}}, {"inbound_nodes": [[["activation_40", 0, 0, {}]]], "class_name": "Conv2D", "name": "conv2d_37", "config": {"bias_constraint": null, "dilation_rate": [1, 1], "bias_initializer": {"class_name": "Zeros", "config": {}}, "kernel_constraint": null, "activation": "linear", "trainable": true, "activity_regularizer": null, "kernel_size": [3, 3], "filters": 64, "name": "conv2d_37", "kernel_regularizer": null, "data_format": "channels_last", "kernel_initializer": {"class_name": "VarianceScaling", "config": {"scale": 1.0, "seed": null, "mode": "fan_avg", "distribution": "uniform"}}, "strides": [1, 1], "use_bias": true, "padding": "same", "bias_regularizer": null}}, {"inbound_nodes": [[["activation_42", 0, 0, {}]]], "class_name": "Conv2D", "name": "conv2d_39", "config": {"bias_constraint": null, "dilation_rate": [1, 1], "bias_initializer": {"class_name": "Zeros", "config": {}}, "kernel_constraint": null, "activation": "linear", "trainable": true, "activity_regularizer": null, "kernel_size": [3, 3], "filters": 64, "name": "conv2d_39", "kernel_regularizer": null, "data_format": "channels_last", "kernel_initializer": {"class_name": "VarianceScaling", "config": {"scale": 1.0, "seed": null, "mode": "fan_avg", "distribution": "uniform"}}, "strides": [1, 1], "use_bias": true, "padding": "same", "bias_regularizer": null}}, {"inbound_nodes": [[["activation_44", 0, 0, {}]]], "class_name": "Conv2D", "name": "conv2d_41", "config": {"bias_constraint": null, "dilation_rate": [1, 1], "bias_initializer": {"class_name": "Zeros", "config": {}}, "kernel_constraint": null, "activation": "linear", "trainable": true, "activity_regularizer": null, "kernel_size": [3, 3], "filters": 64, "name": "conv2d_41", "kernel_regularizer": null, "data_format": "channels_last", "kernel_initializer": {"class_name": "VarianceScaling", "config": {"scale": 1.0, "seed": null, "mode": "fan_avg", "distribution": "uniform"}}, "strides": [1, 1], "use_bias": true, "padding": "same", "bias_regularizer": null}}, {"inbound_nodes": [[["activation_46", 0, 0, {}]]], "class_name": "Conv2D", "name": "conv2d_43", "config": {"bias_constraint": null, "dilation_rate": [1, 1], "bias_initializer": {"class_name": "Zeros", "config": {}}, "kernel_constraint": null, "activation": "linear", "trainable": true, "activity_regularizer": null, "kernel_size": [3, 3], "filters": 64, "name": "conv2d_43", "kernel_regularizer": null, "data_format": "channels_last", "kernel_initializer": {"class_name": "VarianceScaling", "config": {"scale": 1.0, "seed": null, "mode": "fan_avg", "distribution": "uniform"}}, "strides": [1, 1], "use_bias": true, "padding": "same", "bias_regularizer": null}}, {"inbound_nodes": [[["activation_48", 0, 0, {}]]], "class_name": "Conv2D", "name": "conv2d_45", "config": {"bias_constraint": null, "dilation_rate": [1, 1], "bias_initializer": {"class_name": "Zeros", "config": {}}, "kernel_constraint": null, "activation": "linear", "trainable": true, "activity_regularizer": null, "kernel_size": [3, 3], "filters": 64, "name": "conv2d_45", "kernel_regularizer": null, "data_format": "channels_last", "kernel_initializer": {"class_name": "VarianceScaling", "config": {"scale": 1.0, "seed": null, "mode": "fan_avg", "distribution": "uniform"}}, "strides": [1, 1], "use_bias": true, "padding": "same", "bias_regularizer": null}}, {"inbound_nodes": [[["activation_50", 0, 0, {}]]], "class_name": "Conv2D", "name": "conv2d_47", "config": {"bias_constraint": null, "dilation_rate": [1, 1], "bias_initializer": {"class_name": "Zeros", "config": {}}, "kernel_constraint": null, "activation": "linear", "trainable": true, "activity_regularizer": null, "kernel_size": [3, 3], "filters": 64, "name": "conv2d_47", "kernel_regularizer": null, "data_format": "channels_last", "kernel_initializer": {"class_name": "VarianceScaling", "config": {"scale": 1.0, "seed": null, "mode": "fan_avg", "distribution": "uniform"}}, "strides": [1, 1], "use_bias": true, "padding": "same", "bias_regularizer": null}}, {"inbound_nodes": [[["activation_52", 0, 0, {}]]], "class_name": "Conv2D", "name": "conv2d_49", "config": {"bias_constraint": null, "dilation_rate": [1, 1], "bias_initializer": {"class_name": "Zeros", "config": {}}, "kernel_constraint": null, "activation": "linear", "trainable": true, "activity_regularizer": null, "kernel_size": [3, 3], "filters": 64, "name": "conv2d_49", "kernel_regularizer": null, "data_format": "channels_last", "kernel_initializer": {"class_name": "VarianceScaling", "config": {"scale": 1.0, "seed": null, "mode": "fan_avg", "distribution": "uniform"}}, "strides": [1, 1], "use_bias": true, "padding": "same", "bias_regularizer": null}}, {"inbound_nodes": [[["activation_54", 0, 0, {}]]], "class_name": "Conv2D", "name": "conv2d_51", "config": {"bias_constraint": null, "dilation_rate": [1, 1], "bias_initializer": {"class_name": "Zeros", "config": {}}, "kernel_constraint": null, "activation": "linear", "trainable": true, "activity_regularizer": null, "kernel_size": [3, 3], "filters": 64, "name": "conv2d_51", "kernel_regularizer": null, "data_format": "channels_last", "kernel_initializer": {"class_name": "VarianceScaling", "config": {"scale": 1.0, "seed": null, "mode": "fan_avg", "distribution": "uniform"}}, "strides": [1, 1], "use_bias": true, "padding": "same", "bias_regularizer": null}}, {"inbound_nodes": [[["conv2d_37", 0, 0, {}]]], "class_name": "BatchNormalization", "name": "batch_normalization_37", "config": {"epsilon": 0.001, "axis": -1, "moving_variance_initializer": {"class_name": "Ones", "config": {}}, "gamma_regularizer": null, "beta_initializer": {"class_name": "Zeros", "config": {}}, "center": true, "gamma_constraint": null, "moving_mean_initializer": {"class_name": "Zeros", "config": {}}, "beta_regularizer": null, "name": "batch_normalization_37", "scale": true, "gamma_initializer": {"class_name": "Ones", "config": {}}, "beta_constraint": null, "trainable": true, "momentum": 0.99}}, {"inbound_nodes": [[["conv2d_39", 0, 0, {}]]], "class_name": "BatchNormalization", "name": "batch_normalization_39", "config": {"epsilon": 0.001, "axis": -1, "moving_variance_initializer": {"class_name": "Ones", "config": {}}, "gamma_regularizer": null, "beta_initializer": {"class_name": "Zeros", "config": {}}, "center": true, "gamma_constraint": null, "moving_mean_initializer": {"class_name": "Zeros", "config": {}}, "beta_regularizer": null, "name": "batch_normalization_39", "scale": true, "gamma_initializer": {"class_name": "Ones", "config": {}}, "beta_constraint": null, "trainable": true, "momentum": 0.99}}, {"inbound_nodes": [[["conv2d_41", 0, 0, {}]]], "class_name": "BatchNormalization", "name": "batch_normalization_41", "config": {"epsilon": 0.001, "axis": -1, "moving_variance_initializer": {"class_name": "Ones", "config": {}}, "gamma_regularizer": null, "beta_initializer": {"class_name": "Zeros", "config": {}}, "center": true, "gamma_constraint": null, "moving_mean_initializer": {"class_name": "Zeros", "config": {}}, "beta_regularizer": null, "name": "batch_normalization_41", "scale": true, "gamma_initializer": {"class_name": "Ones", "config": {}}, "beta_constraint": null, "trainable": true, "momentum": 0.99}}, {"inbound_nodes": [[["conv2d_43", 0, 0, {}]]], "class_name": "BatchNormalization", "name": "batch_normalization_43", "config": {"epsilon": 0.001, "axis": -1, "moving_variance_initializer": {"class_name": "Ones", "config": {}}, "gamma_regularizer": null, "beta_initializer": {"class_name": "Zeros", "config": {}}, "center": true, "gamma_constraint": null, "moving_mean_initializer": {"class_name": "Zeros", "config": {}}, "beta_regularizer": null, "name": "batch_normalization_43", "scale": true, "gamma_initializer": {"class_name": "Ones", "config": {}}, "beta_constraint": null, "trainable": true, "momentum": 0.99}}, {"inbound_nodes": [[["conv2d_45", 0, 0, {}]]], "class_name": "BatchNormalization", "name": "batch_normalization_45", "config": {"epsilon": 0.001, "axis": -1, "moving_variance_initializer": {"class_name": "Ones", "config": {}}, "gamma_regularizer": null, "beta_initializer": {"class_name": "Zeros", "config": {}}, "center": true, "gamma_constraint": null, "moving_mean_initializer": {"class_name": "Zeros", "config": {}}, "beta_regularizer": null, "name": "batch_normalization_45", "scale": true, "gamma_initializer": {"class_name": "Ones", "config": {}}, "beta_constraint": null, "trainable": true, "momentum": 0.99}}, {"inbound_nodes": [[["conv2d_47", 0, 0, {}]]], "class_name": "BatchNormalization", "name": "batch_normalization_47", "config": {"epsilon": 0.001, "axis": -1, "moving_variance_initializer": {"class_name": "Ones", "config": {}}, "gamma_regularizer": null, "beta_initializer": {"class_name": "Zeros", "config": {}}, "center": true, "gamma_constraint": null, "moving_mean_initializer": {"class_name": "Zeros", "config": {}}, "beta_regularizer": null, "name": "batch_normalization_47", "scale": true, "gamma_initializer": {"class_name": "Ones", "config": {}}, "beta_constraint": null, "trainable": true, "momentum": 0.99}}, {"inbound_nodes": [[["conv2d_49", 0, 0, {}]]], "class_name": "BatchNormalization", "name": "batch_normalization_49", "config": {"epsilon": 0.001, "axis": -1, "moving_variance_initializer": {"class_name": "Ones", "config": {}}, "gamma_regularizer": null, "beta_initializer": {"class_name": "Zeros", "config": {}}, "center": true, "gamma_constraint": null, "moving_mean_initializer": {"class_name": "Zeros", "config": {}}, "beta_regularizer": null, "name": "batch_normalization_49", "scale": true, "gamma_initializer": {"class_name": "Ones", "config": {}}, "beta_constraint": null, "trainable": true, "momentum": 0.99}}, {"inbound_nodes": [[["conv2d_51", 0, 0, {}]]], "class_name": "BatchNormalization", "name": "batch_normalization_51", "config": {"epsilon": 0.001, "axis": -1, "moving_variance_initializer": {"class_name": "Ones", "config": {}}, "gamma_regularizer": null, "beta_initializer": {"class_name": "Zeros", "config": {}}, "center": true, "gamma_constraint": null, "moving_mean_initializer": {"class_name": "Zeros", "config": {}}, "beta_regularizer": null, "name": "batch_normalization_51", "scale": true, "gamma_initializer": {"class_name": "Ones", "config": {}}, "beta_constraint": null, "trainable": true, "momentum": 0.99}}, {"inbound_nodes": [[["batch_normalization_37", 0, 0, {}]]], "class_name": "Activation", "name": "activation_41", "config": {"activation": "relu", "trainable": true, "name": "activation_41"}}, {"inbound_nodes": [[["batch_normalization_39", 0, 0, {}]]], "class_name": "Activation", "name": "activation_43", "config": {"activation": "relu", "trainable": true, "name": "activation_43"}}, {"inbound_nodes": [[["batch_normalization_41", 0, 0, {}]]], "class_name": "Activation", "name": "activation_45", "config": {"activation": "relu", "trainable": true, "name": "activation_45"}}, {"inbound_nodes": [[["batch_normalization_43", 0, 0, {}]]], "class_name": "Activation", "name": "activation_47", "config": {"activation": "relu", "trainable": true, "name": "activation_47"}}, {"inbound_nodes": [[["batch_normalization_45", 0, 0, {}]]], "class_name": "Activation", "name": "activation_49", "config": {"activation": "relu", "trainable": true, "name": "activation_49"}}, {"inbound_nodes": [[["batch_normalization_47", 0, 0, {}]]], "class_name": "Activation", "name": "activation_51", "config": {"activation": "relu", "trainable": true, "name": "activation_51"}}, {"inbound_nodes": [[["batch_normalization_49", 0, 0, {}]]], "class_name": "Activation", "name": "activation_53", "config": {"activation": "relu", "trainable": true, "name": "activation_53"}}, {"inbound_nodes": [[["batch_normalization_51", 0, 0, {}]]], "class_name": "Activation", "name": "activation_55", "config": {"activation": "relu", "trainable": true, "name": "activation_55"}}, {"inbound_nodes": [[["activation_41", 0, 0, {}], ["activation_43", 0, 0, {}], ["activation_45", 0, 0, {}], ["activation_47", 0, 0, {}], ["activation_49", 0, 0, {}], ["activation_51", 0, 0, {}], ["activation_53", 0, 0, {}], ["activation_55", 0, 0, {}]]], "class_name": "Concatenate", "name": "concatenate_3", "config": {"axis": 3, "trainable": true, "name": "concatenate_3"}}, {"inbound_nodes": [[["concatenate_3", 0, 0, {}]]], "class_name": "Conv2D", "name": "conv2d_52", "config": {"bias_constraint": null, "dilation_rate": [1, 1], "bias_initializer": {"class_name": "Zeros", "config": {}}, "kernel_constraint": null, "activation": "linear", "trainable": true, "activity_regularizer": null, "kernel_size": [1, 1], "filters": 64, "name": "conv2d_52", "kernel_regularizer": null, "data_format": "channels_last", "kernel_initializer": {"class_name": "VarianceScaling", "config": {"scale": 1.0, "seed": null, "mode": "fan_avg", "distribution": "uniform"}}, "strides": [1, 1], "use_bias": true, "padding": "same", "bias_regularizer": null}}, {"inbound_nodes": [[["conv2d_52", 0, 0, {}]]], "class_name": "BatchNormalization", "name": "batch_normalization_52", "config": {"epsilon": 0.001, "axis": -1, "moving_variance_initializer": {"class_name": "Ones", "config": {}}, "gamma_regularizer": null, "beta_initializer": {"class_name": "Zeros", "config": {}}, "center": true, "gamma_constraint": null, "moving_mean_initializer": {"class_name": "Zeros", "config": {}}, "beta_regularizer": null, "name": "batch_normalization_52", "scale": true, "gamma_initializer": {"class_name": "Ones", "config": {}}, "beta_constraint": null, "trainable": true, "momentum": 0.99}}, {"inbound_nodes": [[["batch_normalization_52", 0, 0, {}]]], "class_name": "GlobalAveragePooling2D", "name": "global_average_pooling2d_3", "config": {"data_format": "channels_last", "trainable": true, "name": "global_average_pooling2d_3"}}, {"inbound_nodes": [[["global_average_pooling2d_3", 0, 0, {}]]], "class_name": "Dense", "name": "dense_5", "config": {"bias_constraint": null, "kernel_constraint": null, "activation": "linear", "trainable": true, "activity_regularizer": null, "use_bias": true, "bias_regularizer": null, "kernel_regularizer": null, "kernel_initializer": {"class_name": "VarianceScaling", "config": {"scale": 1.0, "seed": null, "mode": "fan_avg", "distribution": "uniform"}}, "units": 16, "name": "dense_5", "bias_initializer": {"class_name": "Zeros", "config": {}}}}, {"inbound_nodes": [[["dense_5", 0, 0, {}]]], "class_name": "Activation", "name": "activation_56", "config": {"activation": "relu", "trainable": true, "name": "activation_56"}}, {"inbound_nodes": [[["activation_56", 0, 0, {}]]], "class_name": "Dense", "name": "dense_6", "config": {"bias_constraint": null, "kernel_constraint": null, "activation": "linear", "trainable": true, "activity_regularizer": null, "use_bias": true, "bias_regularizer": null, "kernel_regularizer": null, "kernel_initializer": {"class_name": "VarianceScaling", "config": {"scale": 1.0, "seed": null, "mode": "fan_avg", "distribution": "uniform"}}, "units": 64, "name": "dense_6", "bias_initializer": {"class_name": "Zeros", "config": {}}}}, {"inbound_nodes": [[["dense_6", 0, 0, {}]]], "class_name": "Activation", "name": "activation_57", "config": {"activation": "sigmoid", "trainable": true, "name": "activation_57"}}, {"inbound_nodes": [[["activation_57", 0, 0, {}]]], "class_name": "Reshape", "name": "reshape_3", "config": {"target_shape": [1, 1, 64], "trainable": true, "name": "reshape_3"}}, {"inbound_nodes": [[["batch_normalization_52", 0, 0, {}], ["reshape_3", 0, 0, {}]]], "class_name": "Multiply", "name": "multiply_3", "config": {"trainable": true, "name": "multiply_3"}}, {"inbound_nodes": [[["activation_39", 0, 0, {}], ["multiply_3", 0, 0, {}]]], "class_name": "Add", "name": "add_3", "config": {"trainable": true, "name": "add_3"}}, {"inbound_nodes": [[["add_3", 0, 0, {}]]], "class_name": "Activation", "name": "activation_58", "config": {"activation": "relu", "trainable": true, "name": "activation_58"}}, {"inbound_nodes": [[["activation_58", 0, 0, {}]]], "class_name": "Conv2D", "name": "conv2d_53", "config": {"bias_constraint": null, "dilation_rate": [1, 1], "bias_initializer": {"class_name": "Zeros", "config": {}}, "kernel_constraint": null, "activation": "linear", "trainable": true, "activity_regularizer": null, "kernel_size": [1, 1], "filters": 64, "name": "conv2d_53", "kernel_regularizer": null, "data_format": "channels_last", "kernel_initializer": {"class_name": "VarianceScaling", "config": {"scale": 1.0, "seed": null, "mode": "fan_avg", "distribution": "uniform"}}, "strides": [1, 1], "use_bias": true, "padding": "same", "bias_regularizer": null}}, {"inbound_nodes": [[["activation_58", 0, 0, {}]]], "class_name": "Conv2D", "name": "conv2d_55", "config": {"bias_constraint": null, "dilation_rate": [1, 1], "bias_initializer": {"class_name": "Zeros", "config": {}}, "kernel_constraint": null, "activation": "linear", "trainable": true, "activity_regularizer": null, "kernel_size": [1, 1], "filters": 64, "name": "conv2d_55", "kernel_regularizer": null, "data_format": "channels_last", "kernel_initializer": {"class_name": "VarianceScaling", "config": {"scale": 1.0, "seed": null, "mode": "fan_avg", "distribution": "uniform"}}, "strides": [1, 1], "use_bias": true, "padding": "same", "bias_regularizer": null}}, {"inbound_nodes": [[["activation_58", 0, 0, {}]]], "class_name": "Conv2D", "name": "conv2d_57", "config": {"bias_constraint": null, "dilation_rate": [1, 1], "bias_initializer": {"class_name": "Zeros", "config": {}}, "kernel_constraint": null, "activation": "linear", "trainable": true, "activity_regularizer": null, "kernel_size": [1, 1], "filters": 64, "name": "conv2d_57", "kernel_regularizer": null, "data_format": "channels_last", "kernel_initializer": {"class_name": "VarianceScaling", "config": {"scale": 1.0, "seed": null, "mode": "fan_avg", "distribution": "uniform"}}, "strides": [1, 1], "use_bias": true, "padding": "same", "bias_regularizer": null}}, {"inbound_nodes": [[["activation_58", 0, 0, {}]]], "class_name": "Conv2D", "name": "conv2d_59", "config": {"bias_constraint": null, "dilation_rate": [1, 1], "bias_initializer": {"class_name": "Zeros", "config": {}}, "kernel_constraint": null, "activation": "linear", "trainable": true, "activity_regularizer": null, "kernel_size": [1, 1], "filters": 64, "name": "conv2d_59", "kernel_regularizer": null, "data_format": "channels_last", "kernel_initializer": {"class_name": "VarianceScaling", "config": {"scale": 1.0, "seed": null, "mode": "fan_avg", "distribution": "uniform"}}, "strides": [1, 1], "use_bias": true, "padding": "same", "bias_regularizer": null}}, {"inbound_nodes": [[["activation_58", 0, 0, {}]]], "class_name": "Conv2D", "name": "conv2d_61", "config": {"bias_constraint": null, "dilation_rate": [1, 1], "bias_initializer": {"class_name": "Zeros", "config": {}}, "kernel_constraint": null, "activation": "linear", "trainable": true, "activity_regularizer": null, "kernel_size": [1, 1], "filters": 64, "name": "conv2d_61", "kernel_regularizer": null, "data_format": "channels_last", "kernel_initializer": {"class_name": "VarianceScaling", "config": {"scale": 1.0, "seed": null, "mode": "fan_avg", "distribution": "uniform"}}, "strides": [1, 1], "use_bias": true, "padding": "same", "bias_regularizer": null}}, {"inbound_nodes": [[["activation_58", 0, 0, {}]]], "class_name": "Conv2D", "name": "conv2d_63", "config": {"bias_constraint": null, "dilation_rate": [1, 1], "bias_initializer": {"class_name": "Zeros", "config": {}}, "kernel_constraint": null, "activation": "linear", "trainable": true, "activity_regularizer": null, "kernel_size": [1, 1], "filters": 64, "name": "conv2d_63", "kernel_regularizer": null, "data_format": "channels_last", "kernel_initializer": {"class_name": "VarianceScaling", "config": {"scale": 1.0, "seed": null, "mode": "fan_avg", "distribution": "uniform"}}, "strides": [1, 1], "use_bias": true, "padding": "same", "bias_regularizer": null}}, {"inbound_nodes": [[["activation_58", 0, 0, {}]]], "class_name": "Conv2D", "name": "conv2d_65", "config": {"bias_constraint": null, "dilation_rate": [1, 1], "bias_initializer": {"class_name": "Zeros", "config": {}}, "kernel_constraint": null, "activation": "linear", "trainable": true, "activity_regularizer": null, "kernel_size": [1, 1], "filters": 64, "name": "conv2d_65", "kernel_regularizer": null, "data_format": "channels_last", "kernel_initializer": {"class_name": "VarianceScaling", "config": {"scale": 1.0, "seed": null, "mode": "fan_avg", "distribution": "uniform"}}, "strides": [1, 1], "use_bias": true, "padding": "same", "bias_regularizer": null}}, {"inbound_nodes": [[["activation_58", 0, 0, {}]]], "class_name": "Conv2D", "name": "conv2d_67", "config": {"bias_constraint": null, "dilation_rate": [1, 1], "bias_initializer": {"class_name": "Zeros", "config": {}}, "kernel_constraint": null, "activation": "linear", "trainable": true, "activity_regularizer": null, "kernel_size": [1, 1], "filters": 64, "name": "conv2d_67", "kernel_regularizer": null, "data_format": "channels_last", "kernel_initializer": {"class_name": "VarianceScaling", "config": {"scale": 1.0, "seed": null, "mode": "fan_avg", "distribution": "uniform"}}, "strides": [1, 1], "use_bias": true, "padding": "same", "bias_regularizer": null}}, {"inbound_nodes": [[["conv2d_53", 0, 0, {}]]], "class_name": "BatchNormalization", "name": "batch_normalization_53", "config": {"epsilon": 0.001, "axis": -1, "moving_variance_initializer": {"class_name": "Ones", "config": {}}, "gamma_regularizer": null, "beta_initializer": {"class_name": "Zeros", "config": {}}, "center": true, "gamma_constraint": null, "moving_mean_initializer": {"class_name": "Zeros", "config": {}}, "beta_regularizer": null, "name": "batch_normalization_53", "scale": true, "gamma_initializer": {"class_name": "Ones", "config": {}}, "beta_constraint": null, "trainable": true, "momentum": 0.99}}, {"inbound_nodes": [[["conv2d_55", 0, 0, {}]]], "class_name": "BatchNormalization", "name": "batch_normalization_55", "config": {"epsilon": 0.001, "axis": -1, "moving_variance_initializer": {"class_name": "Ones", "config": {}}, "gamma_regularizer": null, "beta_initializer": {"class_name": "Zeros", "config": {}}, "center": true, "gamma_constraint": null, "moving_mean_initializer": {"class_name": "Zeros", "config": {}}, "beta_regularizer": null, "name": "batch_normalization_55", "scale": true, "gamma_initializer": {"class_name": "Ones", "config": {}}, "beta_constraint": null, "trainable": true, "momentum": 0.99}}, {"inbound_nodes": [[["conv2d_57", 0, 0, {}]]], "class_name": "BatchNormalization", "name": "batch_normalization_57", "config": {"epsilon": 0.001, "axis": -1, "moving_variance_initializer": {"class_name": "Ones", "config": {}}, "gamma_regularizer": null, "beta_initializer": {"class_name": "Zeros", "config": {}}, "center": true, "gamma_constraint": null, "moving_mean_initializer": {"class_name": "Zeros", "config": {}}, "beta_regularizer": null, "name": "batch_normalization_57", "scale": true, "gamma_initializer": {"class_name": "Ones", "config": {}}, "beta_constraint": null, "trainable": true, "momentum": 0.99}}, {"inbound_nodes": [[["conv2d_59", 0, 0, {}]]], "class_name": "BatchNormalization", "name": "batch_normalization_59", "config": {"epsilon": 0.001, "axis": -1, "moving_variance_initializer": {"class_name": "Ones", "config": {}}, "gamma_regularizer": null, "beta_initializer": {"class_name": "Zeros", "config": {}}, "center": true, "gamma_constraint": null, "moving_mean_initializer": {"class_name": "Zeros", "config": {}}, "beta_regularizer": null, "name": "batch_normalization_59", "scale": true, "gamma_initializer": {"class_name": "Ones", "config": {}}, "beta_constraint": null, "trainable": true, "momentum": 0.99}}, {"inbound_nodes": [[["conv2d_61", 0, 0, {}]]], "class_name": "BatchNormalization", "name": "batch_normalization_61", "config": {"epsilon": 0.001, "axis": -1, "moving_variance_initializer": {"class_name": "Ones", "config": {}}, "gamma_regularizer": null, "beta_initializer": {"class_name": "Zeros", "config": {}}, "center": true, "gamma_constraint": null, "moving_mean_initializer": {"class_name": "Zeros", "config": {}}, "beta_regularizer": null, "name": "batch_normalization_61", "scale": true, "gamma_initializer": {"class_name": "Ones", "config": {}}, "beta_constraint": null, "trainable": true, "momentum": 0.99}}, {"inbound_nodes": [[["conv2d_63", 0, 0, {}]]], "class_name": "BatchNormalization", "name": "batch_normalization_63", "config": {"epsilon": 0.001, "axis": -1, "moving_variance_initializer": {"class_name": "Ones", "config": {}}, "gamma_regularizer": null, "beta_initializer": {"class_name": "Zeros", "config": {}}, "center": true, "gamma_constraint": null, "moving_mean_initializer": {"class_name": "Zeros", "config": {}}, "beta_regularizer": null, "name": "batch_normalization_63", "scale": true, "gamma_initializer": {"class_name": "Ones", "config": {}}, "beta_constraint": null, "trainable": true, "momentum": 0.99}}, {"inbound_nodes": [[["conv2d_65", 0, 0, {}]]], "class_name": "BatchNormalization", "name": "batch_normalization_65", "config": {"epsilon": 0.001, "axis": -1, "moving_variance_initializer": {"class_name": "Ones", "config": {}}, "gamma_regularizer": null, "beta_initializer": {"class_name": "Zeros", "config": {}}, "center": true, "gamma_constraint": null, "moving_mean_initializer": {"class_name": "Zeros", "config": {}}, "beta_regularizer": null, "name": "batch_normalization_65", "scale": true, "gamma_initializer": {"class_name": "Ones", "config": {}}, "beta_constraint": null, "trainable": true, "momentum": 0.99}}, {"inbound_nodes": [[["conv2d_67", 0, 0, {}]]], "class_name": "BatchNormalization", "name": "batch_normalization_67", "config": {"epsilon": 0.001, "axis": -1, "moving_variance_initializer": {"class_name": "Ones", "config": {}}, "gamma_regularizer": null, "beta_initializer": {"class_name": "Zeros", "config": {}}, "center": true, "gamma_constraint": null, "moving_mean_initializer": {"class_name": "Zeros", "config": {}}, "beta_regularizer": null, "name": "batch_normalization_67", "scale": true, "gamma_initializer": {"class_name": "Ones", "config": {}}, "beta_constraint": null, "trainable": true, "momentum": 0.99}}, {"inbound_nodes": [[["batch_normalization_53", 0, 0, {}]]], "class_name": "Activation", "name": "activation_59", "config": {"activation": "relu", "trainable": true, "name": "activation_59"}}, {"inbound_nodes": [[["batch_normalization_55", 0, 0, {}]]], "class_name": "Activation", "name": "activation_61", "config": {"activation": "relu", "trainable": true, "name": "activation_61"}}, {"inbound_nodes": [[["batch_normalization_57", 0, 0, {}]]], "class_name": "Activation", "name": "activation_63", "config": {"activation": "relu", "trainable": true, "name": "activation_63"}}, {"inbound_nodes": [[["batch_normalization_59", 0, 0, {}]]], "class_name": "Activation", "name": "activation_65", "config": {"activation": "relu", "trainable": true, "name": "activation_65"}}, {"inbound_nodes": [[["batch_normalization_61", 0, 0, {}]]], "class_name": "Activation", "name": "activation_67", "config": {"activation": "relu", "trainable": true, "name": "activation_67"}}, {"inbound_nodes": [[["batch_normalization_63", 0, 0, {}]]], "class_name": "Activation", "name": "activation_69", "config": {"activation": "relu", "trainable": true, "name": "activation_69"}}, {"inbound_nodes": [[["batch_normalization_65", 0, 0, {}]]], "class_name": "Activation", "name": "activation_71", "config": {"activation": "relu", "trainable": true, "name": "activation_71"}}, {"inbound_nodes": [[["batch_normalization_67", 0, 0, {}]]], "class_name": "Activation", "name": "activation_73", "config": {"activation": "relu", "trainable": true, "name": "activation_73"}}, {"inbound_nodes": [[["activation_59", 0, 0, {}]]], "class_name": "Conv2D", "name": "conv2d_54", "config": {"bias_constraint": null, "dilation_rate": [1, 1], "bias_initializer": {"class_name": "Zeros", "config": {}}, "kernel_constraint": null, "activation": "linear", "trainable": true, "activity_regularizer": null, "kernel_size": [3, 3], "filters": 64, "name": "conv2d_54", "kernel_regularizer": null, "data_format": "channels_last", "kernel_initializer": {"class_name": "VarianceScaling", "config": {"scale": 1.0, "seed": null, "mode": "fan_avg", "distribution": "uniform"}}, "strides": [2, 2], "use_bias": true, "padding": "same", "bias_regularizer": null}}, {"inbound_nodes": [[["activation_61", 0, 0, {}]]], "class_name": "Conv2D", "name": "conv2d_56", "config": {"bias_constraint": null, "dilation_rate": [1, 1], "bias_initializer": {"class_name": "Zeros", "config": {}}, "kernel_constraint": null, "activation": "linear", "trainable": true, "activity_regularizer": null, "kernel_size": [3, 3], "filters": 64, "name": "conv2d_56", "kernel_regularizer": null, "data_format": "channels_last", "kernel_initializer": {"class_name": "VarianceScaling", "config": {"scale": 1.0, "seed": null, "mode": "fan_avg", "distribution": "uniform"}}, "strides": [2, 2], "use_bias": true, "padding": "same", "bias_regularizer": null}}, {"inbound_nodes": [[["activation_63", 0, 0, {}]]], "class_name": "Conv2D", "name": "conv2d_58", "config": {"bias_constraint": null, "dilation_rate": [1, 1], "bias_initializer": {"class_name": "Zeros", "config": {}}, "kernel_constraint": null, "activation": "linear", "trainable": true, "activity_regularizer": null, "kernel_size": [3, 3], "filters": 64, "name": "conv2d_58", "kernel_regularizer": null, "data_format": "channels_last", "kernel_initializer": {"class_name": "VarianceScaling", "config": {"scale": 1.0, "seed": null, "mode": "fan_avg", "distribution": "uniform"}}, "strides": [2, 2], "use_bias": true, "padding": "same", "bias_regularizer": null}}, {"inbound_nodes": [[["activation_65", 0, 0, {}]]], "class_name": "Conv2D", "name": "conv2d_60", "config": {"bias_constraint": null, "dilation_rate": [1, 1], "bias_initializer": {"class_name": "Zeros", "config": {}}, "kernel_constraint": null, "activation": "linear", "trainable": true, "activity_regularizer": null, "kernel_size": [3, 3], "filters": 64, "name": "conv2d_60", "kernel_regularizer": null, "data_format": "channels_last", "kernel_initializer": {"class_name": "VarianceScaling", "config": {"scale": 1.0, "seed": null, "mode": "fan_avg", "distribution": "uniform"}}, "strides": [2, 2], "use_bias": true, "padding": "same", "bias_regularizer": null}}, {"inbound_nodes": [[["activation_67", 0, 0, {}]]], "class_name": "Conv2D", "name": "conv2d_62", "config": {"bias_constraint": null, "dilation_rate": [1, 1], "bias_initializer": {"class_name": "Zeros", "config": {}}, "kernel_constraint": null, "activation": "linear", "trainable": true, "activity_regularizer": null, "kernel_size": [3, 3], "filters": 64, "name": "conv2d_62", "kernel_regularizer": null, "data_format": "channels_last", "kernel_initializer": {"class_name": "VarianceScaling", "config": {"scale": 1.0, "seed": null, "mode": "fan_avg", "distribution": "uniform"}}, "strides": [2, 2], "use_bias": true, "padding": "same", "bias_regularizer": null}}, {"inbound_nodes": [[["activation_69", 0, 0, {}]]], "class_name": "Conv2D", "name": "conv2d_64", "config": {"bias_constraint": null, "dilation_rate": [1, 1], "bias_initializer": {"class_name": "Zeros", "config": {}}, "kernel_constraint": null, "activation": "linear", "trainable": true, "activity_regularizer": null, "kernel_size": [3, 3], "filters": 64, "name": "conv2d_64", "kernel_regularizer": null, "data_format": "channels_last", "kernel_initializer": {"class_name": "VarianceScaling", "config": {"scale": 1.0, "seed": null, "mode": "fan_avg", "distribution": "uniform"}}, "strides": [2, 2], "use_bias": true, "padding": "same", "bias_regularizer": null}}, {"inbound_nodes": [[["activation_71", 0, 0, {}]]], "class_name": "Conv2D", "name": "conv2d_66", "config": {"bias_constraint": null, "dilation_rate": [1, 1], "bias_initializer": {"class_name": "Zeros", "config": {}}, "kernel_constraint": null, "activation": "linear", "trainable": true, "activity_regularizer": null, "kernel_size": [3, 3], "filters": 64, "name": "conv2d_66", "kernel_regularizer": null, "data_format": "channels_last", "kernel_initializer": {"class_name": "VarianceScaling", "config": {"scale": 1.0, "seed": null, "mode": "fan_avg", "distribution": "uniform"}}, "strides": [2, 2], "use_bias": true, "padding": "same", "bias_regularizer": null}}, {"inbound_nodes": [[["activation_73", 0, 0, {}]]], "class_name": "Conv2D", "name": "conv2d_68", "config": {"bias_constraint": null, "dilation_rate": [1, 1], "bias_initializer": {"class_name": "Zeros", "config": {}}, "kernel_constraint": null, "activation": "linear", "trainable": true, "activity_regularizer": null, "kernel_size": [3, 3], "filters": 64, "name": "conv2d_68", "kernel_regularizer": null, "data_format": "channels_last", "kernel_initializer": {"class_name": "VarianceScaling", "config": {"scale": 1.0, "seed": null, "mode": "fan_avg", "distribution": "uniform"}}, "strides": [2, 2], "use_bias": true, "padding": "same", "bias_regularizer": null}}, {"inbound_nodes": [[["conv2d_54", 0, 0, {}]]], "class_name": "BatchNormalization", "name": "batch_normalization_54", "config": {"epsilon": 0.001, "axis": -1, "moving_variance_initializer": {"class_name": "Ones", "config": {}}, "gamma_regularizer": null, "beta_initializer": {"class_name": "Zeros", "config": {}}, "center": true, "gamma_constraint": null, "moving_mean_initializer": {"class_name": "Zeros", "config": {}}, "beta_regularizer": null, "name": "batch_normalization_54", "scale": true, "gamma_initializer": {"class_name": "Ones", "config": {}}, "beta_constraint": null, "trainable": true, "momentum": 0.99}}, {"inbound_nodes": [[["conv2d_56", 0, 0, {}]]], "class_name": "BatchNormalization", "name": "batch_normalization_56", "config": {"epsilon": 0.001, "axis": -1, "moving_variance_initializer": {"class_name": "Ones", "config": {}}, "gamma_regularizer": null, "beta_initializer": {"class_name": "Zeros", "config": {}}, "center": true, "gamma_constraint": null, "moving_mean_initializer": {"class_name": "Zeros", "config": {}}, "beta_regularizer": null, "name": "batch_normalization_56", "scale": true, "gamma_initializer": {"class_name": "Ones", "config": {}}, "beta_constraint": null, "trainable": true, "momentum": 0.99}}, {"inbound_nodes": [[["conv2d_58", 0, 0, {}]]], "class_name": "BatchNormalization", "name": "batch_normalization_58", "config": {"epsilon": 0.001, "axis": -1, "moving_variance_initializer": {"class_name": "Ones", "config": {}}, "gamma_regularizer": null, "beta_initializer": {"class_name": "Zeros", "config": {}}, "center": true, "gamma_constraint": null, "moving_mean_initializer": {"class_name": "Zeros", "config": {}}, "beta_regularizer": null, "name": "batch_normalization_58", "scale": true, "gamma_initializer": {"class_name": "Ones", "config": {}}, "beta_constraint": null, "trainable": true, "momentum": 0.99}}, {"inbound_nodes": [[["conv2d_60", 0, 0, {}]]], "class_name": "BatchNormalization", "name": "batch_normalization_60", "config": {"epsilon": 0.001, "axis": -1, "moving_variance_initializer": {"class_name": "Ones", "config": {}}, "gamma_regularizer": null, "beta_initializer": {"class_name": "Zeros", "config": {}}, "center": true, "gamma_constraint": null, "moving_mean_initializer": {"class_name": "Zeros", "config": {}}, "beta_regularizer": null, "name": "batch_normalization_60", "scale": true, "gamma_initializer": {"class_name": "Ones", "config": {}}, "beta_constraint": null, "trainable": true, "momentum": 0.99}}, {"inbound_nodes": [[["conv2d_62", 0, 0, {}]]], "class_name": "BatchNormalization", "name": "batch_normalization_62", "config": {"epsilon": 0.001, "axis": -1, "moving_variance_initializer": {"class_name": "Ones", "config": {}}, "gamma_regularizer": null, "beta_initializer": {"class_name": "Zeros", "config": {}}, "center": true, "gamma_constraint": null, "moving_mean_initializer": {"class_name": "Zeros", "config": {}}, "beta_regularizer": null, "name": "batch_normalization_62", "scale": true, "gamma_initializer": {"class_name": "Ones", "config": {}}, "beta_constraint": null, "trainable": true, "momentum": 0.99}}, {"inbound_nodes": [[["conv2d_64", 0, 0, {}]]], "class_name": "BatchNormalization", "name": "batch_normalization_64", "config": {"epsilon": 0.001, "axis": -1, "moving_variance_initializer": {"class_name": "Ones", "config": {}}, "gamma_regularizer": null, "beta_initializer": {"class_name": "Zeros", "config": {}}, "center": true, "gamma_constraint": null, "moving_mean_initializer": {"class_name": "Zeros", "config": {}}, "beta_regularizer": null, "name": "batch_normalization_64", "scale": true, "gamma_initializer": {"class_name": "Ones", "config": {}}, "beta_constraint": null, "trainable": true, "momentum": 0.99}}, {"inbound_nodes": [[["conv2d_66", 0, 0, {}]]], "class_name": "BatchNormalization", "name": "batch_normalization_66", "config": {"epsilon": 0.001, "axis": -1, "moving_variance_initializer": {"class_name": "Ones", "config": {}}, "gamma_regularizer": null, "beta_initializer": {"class_name": "Zeros", "config": {}}, "center": true, "gamma_constraint": null, "moving_mean_initializer": {"class_name": "Zeros", "config": {}}, "beta_regularizer": null, "name": "batch_normalization_66", "scale": true, "gamma_initializer": {"class_name": "Ones", "config": {}}, "beta_constraint": null, "trainable": true, "momentum": 0.99}}, {"inbound_nodes": [[["conv2d_68", 0, 0, {}]]], "class_name": "BatchNormalization", "name": "batch_normalization_68", "config": {"epsilon": 0.001, "axis": -1, "moving_variance_initializer": {"class_name": "Ones", "config": {}}, "gamma_regularizer": null, "beta_initializer": {"class_name": "Zeros", "config": {}}, "center": true, "gamma_constraint": null, "moving_mean_initializer": {"class_name": "Zeros", "config": {}}, "beta_regularizer": null, "name": "batch_normalization_68", "scale": true, "gamma_initializer": {"class_name": "Ones", "config": {}}, "beta_constraint": null, "trainable": true, "momentum": 0.99}}, {"inbound_nodes": [[["batch_normalization_54", 0, 0, {}]]], "class_name": "Activation", "name": "activation_60", "config": {"activation": "relu", "trainable": true, "name": "activation_60"}}, {"inbound_nodes": [[["batch_normalization_56", 0, 0, {}]]], "class_name": "Activation", "name": "activation_62", "config": {"activation": "relu", "trainable": true, "name": "activation_62"}}, {"inbound_nodes": [[["batch_normalization_58", 0, 0, {}]]], "class_name": "Activation", "name": "activation_64", "config": {"activation": "relu", "trainable": true, "name": "activation_64"}}, {"inbound_nodes": [[["batch_normalization_60", 0, 0, {}]]], "class_name": "Activation", "name": "activation_66", "config": {"activation": "relu", "trainable": true, "name": "activation_66"}}, {"inbound_nodes": [[["batch_normalization_62", 0, 0, {}]]], "class_name": "Activation", "name": "activation_68", "config": {"activation": "relu", "trainable": true, "name": "activation_68"}}, {"inbound_nodes": [[["batch_normalization_64", 0, 0, {}]]], "class_name": "Activation", "name": "activation_70", "config": {"activation": "relu", "trainable": true, "name": "activation_70"}}, {"inbound_nodes": [[["batch_normalization_66", 0, 0, {}]]], "class_name": "Activation", "name": "activation_72", "config": {"activation": "relu", "trainable": true, "name": "activation_72"}}, {"inbound_nodes": [[["batch_normalization_68", 0, 0, {}]]], "class_name": "Activation", "name": "activation_74", "config": {"activation": "relu", "trainable": true, "name": "activation_74"}}, {"inbound_nodes": [[["activation_60", 0, 0, {}], ["activation_62", 0, 0, {}], ["activation_64", 0, 0, {}], ["activation_66", 0, 0, {}], ["activation_68", 0, 0, {}], ["activation_70", 0, 0, {}], ["activation_72", 0, 0, {}], ["activation_74", 0, 0, {}]]], "class_name": "Concatenate", "name": "concatenate_4", "config": {"axis": 3, "trainable": true, "name": "concatenate_4"}}, {"inbound_nodes": [[["concatenate_4", 0, 0, {}]]], "class_name": "Conv2D", "name": "conv2d_69", "config": {"bias_constraint": null, "dilation_rate": [1, 1], "bias_initializer": {"class_name": "Zeros", "config": {}}, "kernel_constraint": null, "activation": "linear", "trainable": true, "activity_regularizer": null, "kernel_size": [1, 1], "filters": 128, "name": "conv2d_69", "kernel_regularizer": null, "data_format": "channels_last", "kernel_initializer": {"class_name": "VarianceScaling", "config": {"scale": 1.0, "seed": null, "mode": "fan_avg", "distribution": "uniform"}}, "strides": [1, 1], "use_bias": true, "padding": "same", "bias_regularizer": null}}, {"inbound_nodes": [[["conv2d_69", 0, 0, {}]]], "class_name": "BatchNormalization", "name": "batch_normalization_69", "config": {"epsilon": 0.001, "axis": -1, "moving_variance_initializer": {"class_name": "Ones", "config": {}}, "gamma_regularizer": null, "beta_initializer": {"class_name": "Zeros", "config": {}}, "center": true, "gamma_constraint": null, "moving_mean_initializer": {"class_name": "Zeros", "config": {}}, "beta_regularizer": null, "name": "batch_normalization_69", "scale": true, "gamma_initializer": {"class_name": "Ones", "config": {}}, "beta_constraint": null, "trainable": true, "momentum": 0.99}}, {"inbound_nodes": [[["batch_normalization_69", 0, 0, {}]]], "class_name": "GlobalAveragePooling2D", "name": "global_average_pooling2d_4", "config": {"data_format": "channels_last", "trainable": true, "name": "global_average_pooling2d_4"}}, {"inbound_nodes": [[["global_average_pooling2d_4", 0, 0, {}]]], "class_name": "Dense", "name": "dense_7", "config": {"bias_constraint": null, "kernel_constraint": null, "activation": "linear", "trainable": true, "activity_regularizer": null, "use_bias": true, "bias_regularizer": null, "kernel_regularizer": null, "kernel_initializer": {"class_name": "VarianceScaling", "config": {"scale": 1.0, "seed": null, "mode": "fan_avg", "distribution": "uniform"}}, "units": 32, "name": "dense_7", "bias_initializer": {"class_name": "Zeros", "config": {}}}}, {"inbound_nodes": [[["dense_7", 0, 0, {}]]], "class_name": "Activation", "name": "activation_75", "config": {"activation": "relu", "trainable": true, "name": "activation_75"}}, {"inbound_nodes": [[["activation_75", 0, 0, {}]]], "class_name": "Dense", "name": "dense_8", "config": {"bias_constraint": null, "kernel_constraint": null, "activation": "linear", "trainable": true, "activity_regularizer": null, "use_bias": true, "bias_regularizer": null, "kernel_regularizer": null, "kernel_initializer": {"class_name": "VarianceScaling", "config": {"scale": 1.0, "seed": null, "mode": "fan_avg", "distribution": "uniform"}}, "units": 128, "name": "dense_8", "bias_initializer": {"class_name": "Zeros", "config": {}}}}, {"inbound_nodes": [[["dense_8", 0, 0, {}]]], "class_name": "Activation", "name": "activation_76", "config": {"activation": "sigmoid", "trainable": true, "name": "activation_76"}}, {"inbound_nodes": [[["activation_58", 0, 0, {}]]], "class_name": "AveragePooling2D", "name": "average_pooling2d_1", "config": {"pool_size": [2, 2], "data_format": "channels_last", "name": "average_pooling2d_1", "trainable": true, "padding": "same", "strides": [2, 2]}}, {"inbound_nodes": [[["activation_76", 0, 0, {}]]], "class_name": "Reshape", "name": "reshape_4", "config": {"target_shape": [1, 1, 128], "trainable": true, "name": "reshape_4"}}, {"inbound_nodes": [[["average_pooling2d_1", 0, 0, {}]]], "class_name": "Lambda", "name": "lambda_1", "config": {"output_shape_type": "function", "name": "lambda_1", "function": "channel_zeropad", "function_type": "function", "trainable": true, "arguments": {}, "output_shape": "channel_zeropad_output"}}, {"inbound_nodes": [[["batch_normalization_69", 0, 0, {}], ["reshape_4", 0, 0, {}]]], "class_name": "Multiply", "name": "multiply_4", "config": {"trainable": true, "name": "multiply_4"}}, {"inbound_nodes": [[["lambda_1", 0, 0, {}], ["multiply_4", 0, 0, {}]]], "class_name": "Add", "name": "add_4", "config": {"trainable": true, "name": "add_4"}}, {"inbound_nodes": [[["add_4", 0, 0, {}]]], "class_name": "Activation", "name": "activation_77", "config": {"activation": "relu", "trainable": true, "name": "activation_77"}}, {"inbound_nodes": [[["activation_77", 0, 0, {}]]], "class_name": "Conv2D", "name": "conv2d_70", "config": {"bias_constraint": null, "dilation_rate": [1, 1], "bias_initializer": {"class_name": "Zeros", "config": {}}, "kernel_constraint": null, "activation": "linear", "trainable": true, "activity_regularizer": null, "kernel_size": [1, 1], "filters": 64, "name": "conv2d_70", "kernel_regularizer": null, "data_format": "channels_last", "kernel_initializer": {"class_name": "VarianceScaling", "config": {"scale": 1.0, "seed": null, "mode": "fan_avg", "distribution": "uniform"}}, "strides": [1, 1], "use_bias": true, "padding": "same", "bias_regularizer": null}}, {"inbound_nodes": [[["activation_77", 0, 0, {}]]], "class_name": "Conv2D", "name": "conv2d_72", "config": {"bias_constraint": null, "dilation_rate": [1, 1], "bias_initializer": {"class_name": "Zeros", "config": {}}, "kernel_constraint": null, "activation": "linear", "trainable": true, "activity_regularizer": null, "kernel_size": [1, 1], "filters": 64, "name": "conv2d_72", "kernel_regularizer": null, "data_format": "channels_last", "kernel_initializer": {"class_name": "VarianceScaling", "config": {"scale": 1.0, "seed": null, "mode": "fan_avg", "distribution": "uniform"}}, "strides": [1, 1], "use_bias": true, "padding": "same", "bias_regularizer": null}}, {"inbound_nodes": [[["activation_77", 0, 0, {}]]], "class_name": "Conv2D", "name": "conv2d_74", "config": {"bias_constraint": null, "dilation_rate": [1, 1], "bias_initializer": {"class_name": "Zeros", "config": {}}, "kernel_constraint": null, "activation": "linear", "trainable": true, "activity_regularizer": null, "kernel_size": [1, 1], "filters": 64, "name": "conv2d_74", "kernel_regularizer": null, "data_format": "channels_last", "kernel_initializer": {"class_name": "VarianceScaling", "config": {"scale": 1.0, "seed": null, "mode": "fan_avg", "distribution": "uniform"}}, "strides": [1, 1], "use_bias": true, "padding": "same", "bias_regularizer": null}}, {"inbound_nodes": [[["activation_77", 0, 0, {}]]], "class_name": "Conv2D", "name": "conv2d_76", "config": {"bias_constraint": null, "dilation_rate": [1, 1], "bias_initializer": {"class_name": "Zeros", "config": {}}, "kernel_constraint": null, "activation": "linear", "trainable": true, "activity_regularizer": null, "kernel_size": [1, 1], "filters": 64, "name": "conv2d_76", "kernel_regularizer": null, "data_format": "channels_last", "kernel_initializer": {"class_name": "VarianceScaling", "config": {"scale": 1.0, "seed": null, "mode": "fan_avg", "distribution": "uniform"}}, "strides": [1, 1], "use_bias": true, "padding": "same", "bias_regularizer": null}}, {"inbound_nodes": [[["activation_77", 0, 0, {}]]], "class_name": "Conv2D", "name": "conv2d_78", "config": {"bias_constraint": null, "dilation_rate": [1, 1], "bias_initializer": {"class_name": "Zeros", "config": {}}, "kernel_constraint": null, "activation": "linear", "trainable": true, "activity_regularizer": null, "kernel_size": [1, 1], "filters": 64, "name": "conv2d_78", "kernel_regularizer": null, "data_format": "channels_last", "kernel_initializer": {"class_name": "VarianceScaling", "config": {"scale": 1.0, "seed": null, "mode": "fan_avg", "distribution": "uniform"}}, "strides": [1, 1], "use_bias": true, "padding": "same", "bias_regularizer": null}}, {"inbound_nodes": [[["activation_77", 0, 0, {}]]], "class_name": "Conv2D", "name": "conv2d_80", "config": {"bias_constraint": null, "dilation_rate": [1, 1], "bias_initializer": {"class_name": "Zeros", "config": {}}, "kernel_constraint": null, "activation": "linear", "trainable": true, "activity_regularizer": null, "kernel_size": [1, 1], "filters": 64, "name": "conv2d_80", "kernel_regularizer": null, "data_format": "channels_last", "kernel_initializer": {"class_name": "VarianceScaling", "config": {"scale": 1.0, "seed": null, "mode": "fan_avg", "distribution": "uniform"}}, "strides": [1, 1], "use_bias": true, "padding": "same", "bias_regularizer": null}}, {"inbound_nodes": [[["activation_77", 0, 0, {}]]], "class_name": "Conv2D", "name": "conv2d_82", "config": {"bias_constraint": null, "dilation_rate": [1, 1], "bias_initializer": {"class_name": "Zeros", "config": {}}, "kernel_constraint": null, "activation": "linear", "trainable": true, "activity_regularizer": null, "kernel_size": [1, 1], "filters": 64, "name": "conv2d_82", "kernel_regularizer": null, "data_format": "channels_last", "kernel_initializer": {"class_name": "VarianceScaling", "config": {"scale": 1.0, "seed": null, "mode": "fan_avg", "distribution": "uniform"}}, "strides": [1, 1], "use_bias": true, "padding": "same", "bias_regularizer": null}}, {"inbound_nodes": [[["activation_77", 0, 0, {}]]], "class_name": "Conv2D", "name": "conv2d_84", "config": {"bias_constraint": null, "dilation_rate": [1, 1], "bias_initializer": {"class_name": "Zeros", "config": {}}, "kernel_constraint": null, "activation": "linear", "trainable": true, "activity_regularizer": null, "kernel_size": [1, 1], "filters": 64, "name": "conv2d_84", "kernel_regularizer": null, "data_format": "channels_last", "kernel_initializer": {"class_name": "VarianceScaling", "config": {"scale": 1.0, "seed": null, "mode": "fan_avg", "distribution": "uniform"}}, "strides": [1, 1], "use_bias": true, "padding": "same", "bias_regularizer": null}}, {"inbound_nodes": [[["conv2d_70", 0, 0, {}]]], "class_name": "BatchNormalization", "name": "batch_normalization_70", "config": {"epsilon": 0.001, "axis": -1, "moving_variance_initializer": {"class_name": "Ones", "config": {}}, "gamma_regularizer": null, "beta_initializer": {"class_name": "Zeros", "config": {}}, "center": true, "gamma_constraint": null, "moving_mean_initializer": {"class_name": "Zeros", "config": {}}, "beta_regularizer": null, "name": "batch_normalization_70", "scale": true, "gamma_initializer": {"class_name": "Ones", "config": {}}, "beta_constraint": null, "trainable": true, "momentum": 0.99}}, {"inbound_nodes": [[["conv2d_72", 0, 0, {}]]], "class_name": "BatchNormalization", "name": "batch_normalization_72", "config": {"epsilon": 0.001, "axis": -1, "moving_variance_initializer": {"class_name": "Ones", "config": {}}, "gamma_regularizer": null, "beta_initializer": {"class_name": "Zeros", "config": {}}, "center": true, "gamma_constraint": null, "moving_mean_initializer": {"class_name": "Zeros", "config": {}}, "beta_regularizer": null, "name": "batch_normalization_72", "scale": true, "gamma_initializer": {"class_name": "Ones", "config": {}}, "beta_constraint": null, "trainable": true, "momentum": 0.99}}, {"inbound_nodes": [[["conv2d_74", 0, 0, {}]]], "class_name": "BatchNormalization", "name": "batch_normalization_74", "config": {"epsilon": 0.001, "axis": -1, "moving_variance_initializer": {"class_name": "Ones", "config": {}}, "gamma_regularizer": null, "beta_initializer": {"class_name": "Zeros", "config": {}}, "center": true, "gamma_constraint": null, "moving_mean_initializer": {"class_name": "Zeros", "config": {}}, "beta_regularizer": null, "name": "batch_normalization_74", "scale": true, "gamma_initializer": {"class_name": "Ones", "config": {}}, "beta_constraint": null, "trainable": true, "momentum": 0.99}}, {"inbound_nodes": [[["conv2d_76", 0, 0, {}]]], "class_name": "BatchNormalization", "name": "batch_normalization_76", "config": {"epsilon": 0.001, "axis": -1, "moving_variance_initializer": {"class_name": "Ones", "config": {}}, "gamma_regularizer": null, "beta_initializer": {"class_name": "Zeros", "config": {}}, "center": true, "gamma_constraint": null, "moving_mean_initializer": {"class_name": "Zeros", "config": {}}, "beta_regularizer": null, "name": "batch_normalization_76", "scale": true, "gamma_initializer": {"class_name": "Ones", "config": {}}, "beta_constraint": null, "trainable": true, "momentum": 0.99}}, {"inbound_nodes": [[["conv2d_78", 0, 0, {}]]], "class_name": "BatchNormalization", "name": "batch_normalization_78", "config": {"epsilon": 0.001, "axis": -1, "moving_variance_initializer": {"class_name": "Ones", "config": {}}, "gamma_regularizer": null, "beta_initializer": {"class_name": "Zeros", "config": {}}, "center": true, "gamma_constraint": null, "moving_mean_initializer": {"class_name": "Zeros", "config": {}}, "beta_regularizer": null, "name": "batch_normalization_78", "scale": true, "gamma_initializer": {"class_name": "Ones", "config": {}}, "beta_constraint": null, "trainable": true, "momentum": 0.99}}, {"inbound_nodes": [[["conv2d_80", 0, 0, {}]]], "class_name": "BatchNormalization", "name": "batch_normalization_80", "config": {"epsilon": 0.001, "axis": -1, "moving_variance_initializer": {"class_name": "Ones", "config": {}}, "gamma_regularizer": null, "beta_initializer": {"class_name": "Zeros", "config": {}}, "center": true, "gamma_constraint": null, "moving_mean_initializer": {"class_name": "Zeros", "config": {}}, "beta_regularizer": null, "name": "batch_normalization_80", "scale": true, "gamma_initializer": {"class_name": "Ones", "config": {}}, "beta_constraint": null, "trainable": true, "momentum": 0.99}}, {"inbound_nodes": [[["conv2d_82", 0, 0, {}]]], "class_name": "BatchNormalization", "name": "batch_normalization_82", "config": {"epsilon": 0.001, "axis": -1, "moving_variance_initializer": {"class_name": "Ones", "config": {}}, "gamma_regularizer": null, "beta_initializer": {"class_name": "Zeros", "config": {}}, "center": true, "gamma_constraint": null, "moving_mean_initializer": {"class_name": "Zeros", "config": {}}, "beta_regularizer": null, "name": "batch_normalization_82", "scale": true, "gamma_initializer": {"class_name": "Ones", "config": {}}, "beta_constraint": null, "trainable": true, "momentum": 0.99}}, {"inbound_nodes": [[["conv2d_84", 0, 0, {}]]], "class_name": "BatchNormalization", "name": "batch_normalization_84", "config": {"epsilon": 0.001, "axis": -1, "moving_variance_initializer": {"class_name": "Ones", "config": {}}, "gamma_regularizer": null, "beta_initializer": {"class_name": "Zeros", "config": {}}, "center": true, "gamma_constraint": null, "moving_mean_initializer": {"class_name": "Zeros", "config": {}}, "beta_regularizer": null, "name": "batch_normalization_84", "scale": true, "gamma_initializer": {"class_name": "Ones", "config": {}}, "beta_constraint": null, "trainable": true, "momentum": 0.99}}, {"inbound_nodes": [[["batch_normalization_70", 0, 0, {}]]], "class_name": "Activation", "name": "activation_78", "config": {"activation": "relu", "trainable": true, "name": "activation_78"}}, {"inbound_nodes": [[["batch_normalization_72", 0, 0, {}]]], "class_name": "Activation", "name": "activation_80", "config": {"activation": "relu", "trainable": true, "name": "activation_80"}}, {"inbound_nodes": [[["batch_normalization_74", 0, 0, {}]]], "class_name": "Activation", "name": "activation_82", "config": {"activation": "relu", "trainable": true, "name": "activation_82"}}, {"inbound_nodes": [[["batch_normalization_76", 0, 0, {}]]], "class_name": "Activation", "name": "activation_84", "config": {"activation": "relu", "trainable": true, "name": "activation_84"}}, {"inbound_nodes": [[["batch_normalization_78", 0, 0, {}]]], "class_name": "Activation", "name": "activation_86", "config": {"activation": "relu", "trainable": true, "name": "activation_86"}}, {"inbound_nodes": [[["batch_normalization_80", 0, 0, {}]]], "class_name": "Activation", "name": "activation_88", "config": {"activation": "relu", "trainable": true, "name": "activation_88"}}, {"inbound_nodes": [[["batch_normalization_82", 0, 0, {}]]], "class_name": "Activation", "name": "activation_90", "config": {"activation": "relu", "trainable": true, "name": "activation_90"}}, {"inbound_nodes": [[["batch_normalization_84", 0, 0, {}]]], "class_name": "Activation", "name": "activation_92", "config": {"activation": "relu", "trainable": true, "name": "activation_92"}}, {"inbound_nodes": [[["activation_78", 0, 0, {}]]], "class_name": "Conv2D", "name": "conv2d_71", "config": {"bias_constraint": null, "dilation_rate": [1, 1], "bias_initializer": {"class_name": "Zeros", "config": {}}, "kernel_constraint": null, "activation": "linear", "trainable": true, "activity_regularizer": null, "kernel_size": [3, 3], "filters": 64, "name": "conv2d_71", "kernel_regularizer": null, "data_format": "channels_last", "kernel_initializer": {"class_name": "VarianceScaling", "config": {"scale": 1.0, "seed": null, "mode": "fan_avg", "distribution": "uniform"}}, "strides": [1, 1], "use_bias": true, "padding": "same", "bias_regularizer": null}}, {"inbound_nodes": [[["activation_80", 0, 0, {}]]], "class_name": "Conv2D", "name": "conv2d_73", "config": {"bias_constraint": null, "dilation_rate": [1, 1], "bias_initializer": {"class_name": "Zeros", "config": {}}, "kernel_constraint": null, "activation": "linear", "trainable": true, "activity_regularizer": null, "kernel_size": [3, 3], "filters": 64, "name": "conv2d_73", "kernel_regularizer": null, "data_format": "channels_last", "kernel_initializer": {"class_name": "VarianceScaling", "config": {"scale": 1.0, "seed": null, "mode": "fan_avg", "distribution": "uniform"}}, "strides": [1, 1], "use_bias": true, "padding": "same", "bias_regularizer": null}}, {"inbound_nodes": [[["activation_82", 0, 0, {}]]], "class_name": "Conv2D", "name": "conv2d_75", "config": {"bias_constraint": null, "dilation_rate": [1, 1], "bias_initializer": {"class_name": "Zeros", "config": {}}, "kernel_constraint": null, "activation": "linear", "trainable": true, "activity_regularizer": null, "kernel_size": [3, 3], "filters": 64, "name": "conv2d_75", "kernel_regularizer": null, "data_format": "channels_last", "kernel_initializer": {"class_name": "VarianceScaling", "config": {"scale": 1.0, "seed": null, "mode": "fan_avg", "distribution": "uniform"}}, "strides": [1, 1], "use_bias": true, "padding": "same", "bias_regularizer": null}}, {"inbound_nodes": [[["activation_84", 0, 0, {}]]], "class_name": "Conv2D", "name": "conv2d_77", "config": {"bias_constraint": null, "dilation_rate": [1, 1], "bias_initializer": {"class_name": "Zeros", "config": {}}, "kernel_constraint": null, "activation": "linear", "trainable": true, "activity_regularizer": null, "kernel_size": [3, 3], "filters": 64, "name": "conv2d_77", "kernel_regularizer": null, "data_format": "channels_last", "kernel_initializer": {"class_name": "VarianceScaling", "config": {"scale": 1.0, "seed": null, "mode": "fan_avg", "distribution": "uniform"}}, "strides": [1, 1], "use_bias": true, "padding": "same", "bias_regularizer": null}}, {"inbound_nodes": [[["activation_86", 0, 0, {}]]], "class_name": "Conv2D", "name": "conv2d_79", "config": {"bias_constraint": null, "dilation_rate": [1, 1], "bias_initializer": {"class_name": "Zeros", "config": {}}, "kernel_constraint": null, "activation": "linear", "trainable": true, "activity_regularizer": null, "kernel_size": [3, 3], "filters": 64, "name": "conv2d_79", "kernel_regularizer": null, "data_format": "channels_last", "kernel_initializer": {"class_name": "VarianceScaling", "config": {"scale": 1.0, "seed": null, "mode": "fan_avg", "distribution": "uniform"}}, "strides": [1, 1], "use_bias": true, "padding": "same", "bias_regularizer": null}}, {"inbound_nodes": [[["activation_88", 0, 0, {}]]], "class_name": "Conv2D", "name": "conv2d_81", "config": {"bias_constraint": null, "dilation_rate": [1, 1], "bias_initializer": {"class_name": "Zeros", "config": {}}, "kernel_constraint": null, "activation": "linear", "trainable": true, "activity_regularizer": null, "kernel_size": [3, 3], "filters": 64, "name": "conv2d_81", "kernel_regularizer": null, "data_format": "channels_last", "kernel_initializer": {"class_name": "VarianceScaling", "config": {"scale": 1.0, "seed": null, "mode": "fan_avg", "distribution": "uniform"}}, "strides": [1, 1], "use_bias": true, "padding": "same", "bias_regularizer": null}}, {"inbound_nodes": [[["activation_90", 0, 0, {}]]], "class_name": "Conv2D", "name": "conv2d_83", "config": {"bias_constraint": null, "dilation_rate": [1, 1], "bias_initializer": {"class_name": "Zeros", "config": {}}, "kernel_constraint": null, "activation": "linear", "trainable": true, "activity_regularizer": null, "kernel_size": [3, 3], "filters": 64, "name": "conv2d_83", "kernel_regularizer": null, "data_format": "channels_last", "kernel_initializer": {"class_name": "VarianceScaling", "config": {"scale": 1.0, "seed": null, "mode": "fan_avg", "distribution": "uniform"}}, "strides": [1, 1], "use_bias": true, "padding": "same", "bias_regularizer": null}}, {"inbound_nodes": [[["activation_92", 0, 0, {}]]], "class_name": "Conv2D", "name": "conv2d_85", "config": {"bias_constraint": null, "dilation_rate": [1, 1], "bias_initializer": {"class_name": "Zeros", "config": {}}, "kernel_constraint": null, "activation": "linear", "trainable": true, "activity_regularizer": null, "kernel_size": [3, 3], "filters": 64, "name": "conv2d_85", "kernel_regularizer": null, "data_format": "channels_last", "kernel_initializer": {"class_name": "VarianceScaling", "config": {"scale": 1.0, "seed": null, "mode": "fan_avg", "distribution": "uniform"}}, "strides": [1, 1], "use_bias": true, "padding": "same", "bias_regularizer": null}}, {"inbound_nodes": [[["conv2d_71", 0, 0, {}]]], "class_name": "BatchNormalization", "name": "batch_normalization_71", "config": {"epsilon": 0.001, "axis": -1, "moving_variance_initializer": {"class_name": "Ones", "config": {}}, "gamma_regularizer": null, "beta_initializer": {"class_name": "Zeros", "config": {}}, "center": true, "gamma_constraint": null, "moving_mean_initializer": {"class_name": "Zeros", "config": {}}, "beta_regularizer": null, "name": "batch_normalization_71", "scale": true, "gamma_initializer": {"class_name": "Ones", "config": {}}, "beta_constraint": null, "trainable": true, "momentum": 0.99}}, {"inbound_nodes": [[["conv2d_73", 0, 0, {}]]], "class_name": "BatchNormalization", "name": "batch_normalization_73", "config": {"epsilon": 0.001, "axis": -1, "moving_variance_initializer": {"class_name": "Ones", "config": {}}, "gamma_regularizer": null, "beta_initializer": {"class_name": "Zeros", "config": {}}, "center": true, "gamma_constraint": null, "moving_mean_initializer": {"class_name": "Zeros", "config": {}}, "beta_regularizer": null, "name": "batch_normalization_73", "scale": true, "gamma_initializer": {"class_name": "Ones", "config": {}}, "beta_constraint": null, "trainable": true, "momentum": 0.99}}, {"inbound_nodes": [[["conv2d_75", 0, 0, {}]]], "class_name": "BatchNormalization", "name": "batch_normalization_75", "config": {"epsilon": 0.001, "axis": -1, "moving_variance_initializer": {"class_name": "Ones", "config": {}}, "gamma_regularizer": null, "beta_initializer": {"class_name": "Zeros", "config": {}}, "center": true, "gamma_constraint": null, "moving_mean_initializer": {"class_name": "Zeros", "config": {}}, "beta_regularizer": null, "name": "batch_normalization_75", "scale": true, "gamma_initializer": {"class_name": "Ones", "config": {}}, "beta_constraint": null, "trainable": true, "momentum": 0.99}}, {"inbound_nodes": [[["conv2d_77", 0, 0, {}]]], "class_name": "BatchNormalization", "name": "batch_normalization_77", "config": {"epsilon": 0.001, "axis": -1, "moving_variance_initializer": {"class_name": "Ones", "config": {}}, "gamma_regularizer": null, "beta_initializer": {"class_name": "Zeros", "config": {}}, "center": true, "gamma_constraint": null, "moving_mean_initializer": {"class_name": "Zeros", "config": {}}, "beta_regularizer": null, "name": "batch_normalization_77", "scale": true, "gamma_initializer": {"class_name": "Ones", "config": {}}, "beta_constraint": null, "trainable": true, "momentum": 0.99}}, {"inbound_nodes": [[["conv2d_79", 0, 0, {}]]], "class_name": "BatchNormalization", "name": "batch_normalization_79", "config": {"epsilon": 0.001, "axis": -1, "moving_variance_initializer": {"class_name": "Ones", "config": {}}, "gamma_regularizer": null, "beta_initializer": {"class_name": "Zeros", "config": {}}, "center": true, "gamma_constraint": null, "moving_mean_initializer": {"class_name": "Zeros", "config": {}}, "beta_regularizer": null, "name": "batch_normalization_79", "scale": true, "gamma_initializer": {"class_name": "Ones", "config": {}}, "beta_constraint": null, "trainable": true, "momentum": 0.99}}, {"inbound_nodes": [[["conv2d_81", 0, 0, {}]]], "class_name": "BatchNormalization", "name": "batch_normalization_81", "config": {"epsilon": 0.001, "axis": -1, "moving_variance_initializer": {"class_name": "Ones", "config": {}}, "gamma_regularizer": null, "beta_initializer": {"class_name": "Zeros", "config": {}}, "center": true, "gamma_constraint": null, "moving_mean_initializer": {"class_name": "Zeros", "config": {}}, "beta_regularizer": null, "name": "batch_normalization_81", "scale": true, "gamma_initializer": {"class_name": "Ones", "config": {}}, "beta_constraint": null, "trainable": true, "momentum": 0.99}}, {"inbound_nodes": [[["conv2d_83", 0, 0, {}]]], "class_name": "BatchNormalization", "name": "batch_normalization_83", "config": {"epsilon": 0.001, "axis": -1, "moving_variance_initializer": {"class_name": "Ones", "config": {}}, "gamma_regularizer": null, "beta_initializer": {"class_name": "Zeros", "config": {}}, "center": true, "gamma_constraint": null, "moving_mean_initializer": {"class_name": "Zeros", "config": {}}, "beta_regularizer": null, "name": "batch_normalization_83", "scale": true, "gamma_initializer": {"class_name": "Ones", "config": {}}, "beta_constraint": null, "trainable": true, "momentum": 0.99}}, {"inbound_nodes": [[["conv2d_85", 0, 0, {}]]], "class_name": "BatchNormalization", "name": "batch_normalization_85", "config": {"epsilon": 0.001, "axis": -1, "moving_variance_initializer": {"class_name": "Ones", "config": {}}, "gamma_regularizer": null, "beta_initializer": {"class_name": "Zeros", "config": {}}, "center": true, "gamma_constraint": null, "moving_mean_initializer": {"class_name": "Zeros", "config": {}}, "beta_regularizer": null, "name": "batch_normalization_85", "scale": true, "gamma_initializer": {"class_name": "Ones", "config": {}}, "beta_constraint": null, "trainable": true, "momentum": 0.99}}, {"inbound_nodes": [[["batch_normalization_71", 0, 0, {}]]], "class_name": "Activation", "name": "activation_79", "config": {"activation": "relu", "trainable": true, "name": "activation_79"}}, {"inbound_nodes": [[["batch_normalization_73", 0, 0, {}]]], "class_name": "Activation", "name": "activation_81", "config": {"activation": "relu", "trainable": true, "name": "activation_81"}}, {"inbound_nodes": [[["batch_normalization_75", 0, 0, {}]]], "class_name": "Activation", "name": "activation_83", "config": {"activation": "relu", "trainable": true, "name": "activation_83"}}, {"inbound_nodes": [[["batch_normalization_77", 0, 0, {}]]], "class_name": "Activation", "name": "activation_85", "config": {"activation": "relu", "trainable": true, "name": "activation_85"}}, {"inbound_nodes": [[["batch_normalization_79", 0, 0, {}]]], "class_name": "Activation", "name": "activation_87", "config": {"activation": "relu", "trainable": true, "name": "activation_87"}}, {"inbound_nodes": [[["batch_normalization_81", 0, 0, {}]]], "class_name": "Activation", "name": "activation_89", "config": {"activation": "relu", "trainable": true, "name": "activation_89"}}, {"inbound_nodes": [[["batch_normalization_83", 0, 0, {}]]], "class_name": "Activation", "name": "activation_91", "config": {"activation": "relu", "trainable": true, "name": "activation_91"}}, {"inbound_nodes": [[["batch_normalization_85", 0, 0, {}]]], "class_name": "Activation", "name": "activation_93", "config": {"activation": "relu", "trainable": true, "name": "activation_93"}}, {"inbound_nodes": [[["activation_79", 0, 0, {}], ["activation_81", 0, 0, {}], ["activation_83", 0, 0, {}], ["activation_85", 0, 0, {}], ["activation_87", 0, 0, {}], ["activation_89", 0, 0, {}], ["activation_91", 0, 0, {}], ["activation_93", 0, 0, {}]]], "class_name": "Concatenate", "name": "concatenate_6", "config": {"axis": 3, "trainable": true, "name": "concatenate_6"}}, {"inbound_nodes": [[["concatenate_6", 0, 0, {}]]], "class_name": "Conv2D", "name": "conv2d_86", "config": {"bias_constraint": null, "dilation_rate": [1, 1], "bias_initializer": {"class_name": "Zeros", "config": {}}, "kernel_constraint": null, "activation": "linear", "trainable": true, "activity_regularizer": null, "kernel_size": [1, 1], "filters": 128, "name": "conv2d_86", "kernel_regularizer": null, "data_format": "channels_last", "kernel_initializer": {"class_name": "VarianceScaling", "config": {"scale": 1.0, "seed": null, "mode": "fan_avg", "distribution": "uniform"}}, "strides": [1, 1], "use_bias": true, "padding": "same", "bias_regularizer": null}}, {"inbound_nodes": [[["conv2d_86", 0, 0, {}]]], "class_name": "BatchNormalization", "name": "batch_normalization_86", "config": {"epsilon": 0.001, "axis": -1, "moving_variance_initializer": {"class_name": "Ones", "config": {}}, "gamma_regularizer": null, "beta_initializer": {"class_name": "Zeros", "config": {}}, "center": true, "gamma_constraint": null, "moving_mean_initializer": {"class_name": "Zeros", "config": {}}, "beta_regularizer": null, "name": "batch_normalization_86", "scale": true, "gamma_initializer": {"class_name": "Ones", "config": {}}, "beta_constraint": null, "trainable": true, "momentum": 0.99}}, {"inbound_nodes": [[["batch_normalization_86", 0, 0, {}]]], "class_name": "GlobalAveragePooling2D", "name": "global_average_pooling2d_5", "config": {"data_format": "channels_last", "trainable": true, "name": "global_average_pooling2d_5"}}, {"inbound_nodes": [[["global_average_pooling2d_5", 0, 0, {}]]], "class_name": "Dense", "name": "dense_9", "config": {"bias_constraint": null, "kernel_constraint": null, "activation": "linear", "trainable": true, "activity_regularizer": null, "use_bias": true, "bias_regularizer": null, "kernel_regularizer": null, "kernel_initializer": {"class_name": "VarianceScaling", "config": {"scale": 1.0, "seed": null, "mode": "fan_avg", "distribution": "uniform"}}, "units": 32, "name": "dense_9", "bias_initializer": {"class_name": "Zeros", "config": {}}}}, {"inbound_nodes": [[["dense_9", 0, 0, {}]]], "class_name": "Activation", "name": "activation_94", "config": {"activation": "relu", "trainable": true, "name": "activation_94"}}, {"inbound_nodes": [[["activation_94", 0, 0, {}]]], "class_name": "Dense", "name": "dense_10", "config": {"bias_constraint": null, "kernel_constraint": null, "activation": "linear", "trainable": true, "activity_regularizer": null, "use_bias": true, "bias_regularizer": null, "kernel_regularizer": null, "kernel_initializer": {"class_name": "VarianceScaling", "config": {"scale": 1.0, "seed": null, "mode": "fan_avg", "distribution": "uniform"}}, "units": 128, "name": "dense_10", "bias_initializer": {"class_name": "Zeros", "config": {}}}}, {"inbound_nodes": [[["dense_10", 0, 0, {}]]], "class_name": "Activation", "name": "activation_95", "config": {"activation": "sigmoid", "trainable": true, "name": "activation_95"}}, {"inbound_nodes": [[["activation_95", 0, 0, {}]]], "class_name": "Reshape", "name": "reshape_5", "config": {"target_shape": [1, 1, 128], "trainable": true, "name": "reshape_5"}}, {"inbound_nodes": [[["batch_normalization_86", 0, 0, {}], ["reshape_5", 0, 0, {}]]], "class_name": "Multiply", "name": "multiply_5", "config": {"trainable": true, "name": "multiply_5"}}, {"inbound_nodes": [[["activation_77", 0, 0, {}], ["multiply_5", 0, 0, {}]]], "class_name": "Add", "name": "add_5", "config": {"trainable": true, "name": "add_5"}}, {"inbound_nodes": [[["add_5", 0, 0, {}]]], "class_name": "Activation", "name": "activation_96", "config": {"activation": "relu", "trainable": true, "name": "activation_96"}}, {"inbound_nodes": [[["activation_96", 0, 0, {}]]], "class_name": "Conv2D", "name": "conv2d_87", "config": {"bias_constraint": null, "dilation_rate": [1, 1], "bias_initializer": {"class_name": "Zeros", "config": {}}, "kernel_constraint": null, "activation": "linear", "trainable": true, "activity_regularizer": null, "kernel_size": [1, 1], "filters": 64, "name": "conv2d_87", "kernel_regularizer": null, "data_format": "channels_last", "kernel_initializer": {"class_name": "VarianceScaling", "config": {"scale": 1.0, "seed": null, "mode": "fan_avg", "distribution": "uniform"}}, "strides": [1, 1], "use_bias": true, "padding": "same", "bias_regularizer": null}}, {"inbound_nodes": [[["activation_96", 0, 0, {}]]], "class_name": "Conv2D", "name": "conv2d_89", "config": {"bias_constraint": null, "dilation_rate": [1, 1], "bias_initializer": {"class_name": "Zeros", "config": {}}, "kernel_constraint": null, "activation": "linear", "trainable": true, "activity_regularizer": null, "kernel_size": [1, 1], "filters": 64, "name": "conv2d_89", "kernel_regularizer": null, "data_format": "channels_last", "kernel_initializer": {"class_name": "VarianceScaling", "config": {"scale": 1.0, "seed": null, "mode": "fan_avg", "distribution": "uniform"}}, "strides": [1, 1], "use_bias": true, "padding": "same", "bias_regularizer": null}}, {"inbound_nodes": [[["activation_96", 0, 0, {}]]], "class_name": "Conv2D", "name": "conv2d_91", "config": {"bias_constraint": null, "dilation_rate": [1, 1], "bias_initializer": {"class_name": "Zeros", "config": {}}, "kernel_constraint": null, "activation": "linear", "trainable": true, "activity_regularizer": null, "kernel_size": [1, 1], "filters": 64, "name": "conv2d_91", "kernel_regularizer": null, "data_format": "channels_last", "kernel_initializer": {"class_name": "VarianceScaling", "config": {"scale": 1.0, "seed": null, "mode": "fan_avg", "distribution": "uniform"}}, "strides": [1, 1], "use_bias": true, "padding": "same", "bias_regularizer": null}}, {"inbound_nodes": [[["activation_96", 0, 0, {}]]], "class_name": "Conv2D", "name": "conv2d_93", "config": {"bias_constraint": null, "dilation_rate": [1, 1], "bias_initializer": {"class_name": "Zeros", "config": {}}, "kernel_constraint": null, "activation": "linear", "trainable": true, "activity_regularizer": null, "kernel_size": [1, 1], "filters": 64, "name": "conv2d_93", "kernel_regularizer": null, "data_format": "channels_last", "kernel_initializer": {"class_name": "VarianceScaling", "config": {"scale": 1.0, "seed": null, "mode": "fan_avg", "distribution": "uniform"}}, "strides": [1, 1], "use_bias": true, "padding": "same", "bias_regularizer": null}}, {"inbound_nodes": [[["activation_96", 0, 0, {}]]], "class_name": "Conv2D", "name": "conv2d_95", "config": {"bias_constraint": null, "dilation_rate": [1, 1], "bias_initializer": {"class_name": "Zeros", "config": {}}, "kernel_constraint": null, "activation": "linear", "trainable": true, "activity_regularizer": null, "kernel_size": [1, 1], "filters": 64, "name": "conv2d_95", "kernel_regularizer": null, "data_format": "channels_last", "kernel_initializer": {"class_name": "VarianceScaling", "config": {"scale": 1.0, "seed": null, "mode": "fan_avg", "distribution": "uniform"}}, "strides": [1, 1], "use_bias": true, "padding": "same", "bias_regularizer": null}}, {"inbound_nodes": [[["activation_96", 0, 0, {}]]], "class_name": "Conv2D", "name": "conv2d_97", "config": {"bias_constraint": null, "dilation_rate": [1, 1], "bias_initializer": {"class_name": "Zeros", "config": {}}, "kernel_constraint": null, "activation": "linear", "trainable": true, "activity_regularizer": null, "kernel_size": [1, 1], "filters": 64, "name": "conv2d_97", "kernel_regularizer": null, "data_format": "channels_last", "kernel_initializer": {"class_name": "VarianceScaling", "config": {"scale": 1.0, "seed": null, "mode": "fan_avg", "distribution": "uniform"}}, "strides": [1, 1], "use_bias": true, "padding": "same", "bias_regularizer": null}}, {"inbound_nodes": [[["activation_96", 0, 0, {}]]], "class_name": "Conv2D", "name": "conv2d_99", "config": {"bias_constraint": null, "dilation_rate": [1, 1], "bias_initializer": {"class_name": "Zeros", "config": {}}, "kernel_constraint": null, "activation": "linear", "trainable": true, "activity_regularizer": null, "kernel_size": [1, 1], "filters": 64, "name": "conv2d_99", "kernel_regularizer": null, "data_format": "channels_last", "kernel_initializer": {"class_name": "VarianceScaling", "config": {"scale": 1.0, "seed": null, "mode": "fan_avg", "distribution": "uniform"}}, "strides": [1, 1], "use_bias": true, "padding": "same", "bias_regularizer": null}}, {"inbound_nodes": [[["activation_96", 0, 0, {}]]], "class_name": "Conv2D", "name": "conv2d_101", "config": {"bias_constraint": null, "dilation_rate": [1, 1], "bias_initializer": {"class_name": "Zeros", "config": {}}, "kernel_constraint": null, "activation": "linear", "trainable": true, "activity_regularizer": null, "kernel_size": [1, 1], "filters": 64, "name": "conv2d_101", "kernel_regularizer": null, "data_format": "channels_last", "kernel_initializer": {"class_name": "VarianceScaling", "config": {"scale": 1.0, "seed": null, "mode": "fan_avg", "distribution": "uniform"}}, "strides": [1, 1], "use_bias": true, "padding": "same", "bias_regularizer": null}}, {"inbound_nodes": [[["conv2d_87", 0, 0, {}]]], "class_name": "BatchNormalization", "name": "batch_normalization_87", "config": {"epsilon": 0.001, "axis": -1, "moving_variance_initializer": {"class_name": "Ones", "config": {}}, "gamma_regularizer": null, "beta_initializer": {"class_name": "Zeros", "config": {}}, "center": true, "gamma_constraint": null, "moving_mean_initializer": {"class_name": "Zeros", "config": {}}, "beta_regularizer": null, "name": "batch_normalization_87", "scale": true, "gamma_initializer": {"class_name": "Ones", "config": {}}, "beta_constraint": null, "trainable": true, "momentum": 0.99}}, {"inbound_nodes": [[["conv2d_89", 0, 0, {}]]], "class_name": "BatchNormalization", "name": "batch_normalization_89", "config": {"epsilon": 0.001, "axis": -1, "moving_variance_initializer": {"class_name": "Ones", "config": {}}, "gamma_regularizer": null, "beta_initializer": {"class_name": "Zeros", "config": {}}, "center": true, "gamma_constraint": null, "moving_mean_initializer": {"class_name": "Zeros", "config": {}}, "beta_regularizer": null, "name": "batch_normalization_89", "scale": true, "gamma_initializer": {"class_name": "Ones", "config": {}}, "beta_constraint": null, "trainable": true, "momentum": 0.99}}, {"inbound_nodes": [[["conv2d_91", 0, 0, {}]]], "class_name": "BatchNormalization", "name": "batch_normalization_91", "config": {"epsilon": 0.001, "axis": -1, "moving_variance_initializer": {"class_name": "Ones", "config": {}}, "gamma_regularizer": null, "beta_initializer": {"class_name": "Zeros", "config": {}}, "center": true, "gamma_constraint": null, "moving_mean_initializer": {"class_name": "Zeros", "config": {}}, "beta_regularizer": null, "name": "batch_normalization_91", "scale": true, "gamma_initializer": {"class_name": "Ones", "config": {}}, "beta_constraint": null, "trainable": true, "momentum": 0.99}}, {"inbound_nodes": [[["conv2d_93", 0, 0, {}]]], "class_name": "BatchNormalization", "name": "batch_normalization_93", "config": {"epsilon": 0.001, "axis": -1, "moving_variance_initializer": {"class_name": "Ones", "config": {}}, "gamma_regularizer": null, "beta_initializer": {"class_name": "Zeros", "config": {}}, "center": true, "gamma_constraint": null, "moving_mean_initializer": {"class_name": "Zeros", "config": {}}, "beta_regularizer": null, "name": "batch_normalization_93", "scale": true, "gamma_initializer": {"class_name": "Ones", "config": {}}, "beta_constraint": null, "trainable": true, "momentum": 0.99}}, {"inbound_nodes": [[["conv2d_95", 0, 0, {}]]], "class_name": "BatchNormalization", "name": "batch_normalization_95", "config": {"epsilon": 0.001, "axis": -1, "moving_variance_initializer": {"class_name": "Ones", "config": {}}, "gamma_regularizer": null, "beta_initializer": {"class_name": "Zeros", "config": {}}, "center": true, "gamma_constraint": null, "moving_mean_initializer": {"class_name": "Zeros", "config": {}}, "beta_regularizer": null, "name": "batch_normalization_95", "scale": true, "gamma_initializer": {"class_name": "Ones", "config": {}}, "beta_constraint": null, "trainable": true, "momentum": 0.99}}, {"inbound_nodes": [[["conv2d_97", 0, 0, {}]]], "class_name": "BatchNormalization", "name": "batch_normalization_97", "config": {"epsilon": 0.001, "axis": -1, "moving_variance_initializer": {"class_name": "Ones", "config": {}}, "gamma_regularizer": null, "beta_initializer": {"class_name": "Zeros", "config": {}}, "center": true, "gamma_constraint": null, "moving_mean_initializer": {"class_name": "Zeros", "config": {}}, "beta_regularizer": null, "name": "batch_normalization_97", "scale": true, "gamma_initializer": {"class_name": "Ones", "config": {}}, "beta_constraint": null, "trainable": true, "momentum": 0.99}}, {"inbound_nodes": [[["conv2d_99", 0, 0, {}]]], "class_name": "BatchNormalization", "name": "batch_normalization_99", "config": {"epsilon": 0.001, "axis": -1, "moving_variance_initializer": {"class_name": "Ones", "config": {}}, "gamma_regularizer": null, "beta_initializer": {"class_name": "Zeros", "config": {}}, "center": true, "gamma_constraint": null, "moving_mean_initializer": {"class_name": "Zeros", "config": {}}, "beta_regularizer": null, "name": "batch_normalization_99", "scale": true, "gamma_initializer": {"class_name": "Ones", "config": {}}, "beta_constraint": null, "trainable": tru…
larizer": null, "name": "batch_normalization_123", "scale": true, "gamma_initializer": {"class_name": "Ones", "config": {}}, "beta_constraint": null, "trainable": true, "momentum": 0.99}}, {"inbound_nodes": [[["conv2d_125", 0, 0, {}]]], "class_name": "BatchNormalization", "name": "batch_normalization_125", "config": {"epsilon": 0.001, "axis": -1, "moving_variance_initializer": {"class_name": "Ones", "config": {}}, "gamma_regularizer": null, "beta_initializer": {"class_name": "Zeros", "config": {}}, "center": true, "gamma_constraint": null, "moving_mean_initializer": {"class_name": "Zeros", "config": {}}, "beta_regularizer": null, "name": "batch_normalization_125", "scale": true, "gamma_initializer": {"class_name": "Ones", "config": {}}, "beta_constraint": null, "trainable": true, "momentum": 0.99}}, {"inbound_nodes": [[["conv2d_127", 0, 0, {}]]], "class_name": "BatchNormalization", "name": "batch_normalization_127", "config": {"epsilon": 0.001, "axis": -1, "moving_variance_initializer": {"class_name": "Ones", "config": {}}, "gamma_regularizer": null, "beta_initializer": {"class_name": "Zeros", "config": {}}, "center": true, "gamma_constraint": null, "moving_mean_initializer": {"class_name": "Zeros", "config": {}}, "beta_regularizer": null, "name": "batch_normalization_127", "scale": true, "gamma_initializer": {"class_name": "Ones", "config": {}}, "beta_constraint": null, "trainable": true, "momentum": 0.99}}, {"inbound_nodes": [[["conv2d_129", 0, 0, {}]]], "class_name": "BatchNormalization", "name": "batch_normalization_129", "config": {"epsilon": 0.001, "axis": -1, "moving_variance_initializer": {"class_name": "Ones", "config": {}}, "gamma_regularizer": null, "beta_initializer": {"class_name": "Zeros", "config": {}}, "center": true, "gamma_constraint": null, "moving_mean_initializer": {"class_name": "Zeros", "config": {}}, "beta_regularizer": null, "name": "batch_normalization_129", "scale": true, "gamma_initializer": {"class_name": "Ones", "config": {}}, "beta_constraint": null, "trainable": true, "momentum": 0.99}}, {"inbound_nodes": [[["conv2d_131", 0, 0, {}]]], "class_name": "BatchNormalization", "name": "batch_normalization_131", "config": {"epsilon": 0.001, "axis": -1, "moving_variance_initializer": {"class_name": "Ones", "config": {}}, "gamma_regularizer": null, "beta_initializer": {"class_name": "Zeros", "config": {}}, "center": true, "gamma_constraint": null, "moving_mean_initializer": {"class_name": "Zeros", "config": {}}, "beta_regularizer": null, "name": "batch_normalization_131", "scale": true, "gamma_initializer": {"class_name": "Ones", "config": {}}, "beta_constraint": null, "trainable": true, "momentum": 0.99}}, {"inbound_nodes": [[["conv2d_133", 0, 0, {}]]], "class_name": "BatchNormalization", "name": "batch_normalization_133", "config": {"epsilon": 0.001, "axis": -1, "moving_variance_initializer": {"class_name": "Ones", "config": {}}, "gamma_regularizer": null, "beta_initializer": {"class_name": "Zeros", "config": {}}, "center": true, "gamma_constraint": null, "moving_mean_initializer": {"class_name": "Zeros", "config": {}}, "beta_regularizer": null, "name": "batch_normalization_133", "scale": true, "gamma_initializer": {"class_name": "Ones", "config": {}}, "beta_constraint": null, "trainable": true, "momentum": 0.99}}, {"inbound_nodes": [[["conv2d_135", 0, 0, {}]]], "class_name": "BatchNormalization", "name": "batch_normalization_135", "config": {"epsilon": 0.001, "axis": -1, "moving_variance_initializer": {"class_name": "Ones", "config": {}}, "gamma_regularizer": null, "beta_initializer": {"class_name": "Zeros", "config": {}}, "center": true, "gamma_constraint": null, "moving_mean_initializer": {"class_name": "Zeros", "config": {}}, "beta_regularizer": null, "name": "batch_normalization_135", "scale": true, "gamma_initializer": {"class_name": "Ones", "config": {}}, "beta_constraint": null, "trainable": true, "momentum": 0.99}}, {"inbound_nodes": [[["batch_normalization_121", 0, 0, {}]]], "class_name": "Activation", "name": "activation_135", "config": {"activation": "relu", "trainable": true, "name": "activation_135"}}, {"inbound_nodes": [[["batch_normalization_123", 0, 0, {}]]], "class_name": "Activation", "name": "activation_137", "config": {"activation": "relu", "trainable": true, "name": "activation_137"}}, {"inbound_nodes": [[["batch_normalization_125", 0, 0, {}]]], "class_name": "Activation", "name": "activation_139", "config": {"activation": "relu", "trainable": true, "name": "activation_139"}}, {"inbound_nodes": [[["batch_normalization_127", 0, 0, {}]]], "class_name": "Activation", "name": "activation_141", "config": {"activation": "relu", "trainable": true, "name": "activation_141"}}, {"inbound_nodes": [[["batch_normalization_129", 0, 0, {}]]], "class_name": "Activation", "name": "activation_143", "config": {"activation": "relu", "trainable": true, "name": "activation_143"}}, {"inbound_nodes": [[["batch_normalization_131", 0, 0, {}]]], "class_name": "Activation", "name": "activation_145", "config": {"activation": "relu", "trainable": true, "name": "activation_145"}}, {"inbound_nodes": [[["batch_normalization_133", 0, 0, {}]]], "class_name": "Activation", "name": "activation_147", "config": {"activation": "relu", "trainable": true, "name": "activation_147"}}, {"inbound_nodes": [[["batch_normalization_135", 0, 0, {}]]], "class_name": "Activation", "name": "activation_149", "config": {"activation": "relu", "trainable": true, "name": "activation_149"}}, {"inbound_nodes": [[["activation_135", 0, 0, {}]]], "class_name": "Conv2D", "name": "conv2d_122", "config": {"bias_constraint": null, "dilation_rate": [1, 1], "bias_initializer": {"class_name": "Zeros", "config": {}}, "kernel_constraint": null, "activation": "linear", "trainable": true, "activity_regularizer": null, "kernel_size": [3, 3], "filters": 64, "name": "conv2d_122", "kernel_regularizer": null, "data_format": "channels_last", "kernel_initializer": {"class_name": "VarianceScaling", "config": {"scale": 1.0, "seed": null, "mode": "fan_avg", "distribution": "uniform"}}, "strides": [1, 1], "use_bias": true, "padding": "same", "bias_regularizer": null}}, {"inbound_nodes": [[["activation_137", 0, 0, {}]]], "class_name": "Conv2D", "name": "conv2d_124", "config": {"bias_constraint": null, "dilation_rate": [1, 1], "bias_initializer": {"class_name": "Zeros", "config": {}}, "kernel_constraint": null, "activation": "linear", "trainable": true, "activity_regularizer": null, "kernel_size": [3, 3], "filters": 64, "name": "conv2d_124", "kernel_regularizer": null, "data_format": "channels_last", "kernel_initializer": {"class_name": "VarianceScaling", "config": {"scale": 1.0, "seed": null, "mode": "fan_avg", "distribution": "uniform"}}, "strides": [1, 1], "use_bias": true, "padding": "same", "bias_regularizer": null}}, {"inbound_nodes": [[["activation_139", 0, 0, {}]]], "class_name": "Conv2D", "name": "conv2d_126", "config": {"bias_constraint": null, "dilation_rate": [1, 1], "bias_initializer": {"class_name": "Zeros", "config": {}}, "kernel_constraint": null, "activation": "linear", "trainable": true, "activity_regularizer": null, "kernel_size": [3, 3], "filters": 64, "name": "conv2d_126", "kernel_regularizer": null, "data_format": "channels_last", "kernel_initializer": {"class_name": "VarianceScaling", "config": {"scale": 1.0, "seed": null, "mode": "fan_avg", "distribution": "uniform"}}, "strides": [1, 1], "use_bias": true, "padding": "same", "bias_regularizer": null}}, {"inbound_nodes": [[["activation_141", 0, 0, {}]]], "class_name": "Conv2D", "name": "conv2d_128", "config": {"bias_constraint": null, "dilation_rate": [1, 1], "bias_initializer": {"class_name": "Zeros", "config": {}}, "kernel_constraint": null, "activation": "linear", "trainable": true, "activity_regularizer": null, "kernel_size": [3, 3], "filters": 64, "name": "conv2d_128", "kernel_regularizer": null, "data_format": "channels_last", "kernel_initializer": {"class_name": "VarianceScaling", "config": {"scale": 1.0, "seed": null, "mode": "fan_avg", "distribution": "uniform"}}, "strides": [1, 1], "use_bias": true, "padding": "same", "bias_regularizer": null}}, {"inbound_nodes": [[["activation_143", 0, 0, {}]]], "class_name": "Conv2D", "name": "conv2d_130", "config": {"bias_constraint": null, "dilation_rate": [1, 1], "bias_initializer": {"class_name": "Zeros", "config": {}}, "kernel_constraint": null, "activation": "linear", "trainable": true, "activity_regularizer": null, "kernel_size": [3, 3], "filters": 64, "name": "conv2d_130", "kernel_regularizer": null, "data_format": "channels_last", "kernel_initializer": {"class_name": "VarianceScaling", "config": {"scale": 1.0, "seed": null, "mode": "fan_avg", "distribution": "uniform"}}, "strides": [1, 1], "use_bias": true, "padding": "same", "bias_regularizer": null}}, {"inbound_nodes": [[["activation_145", 0, 0, {}]]], "class_name": "Conv2D", "name": "conv2d_132", "config": {"bias_constraint": null, "dilation_rate": [1, 1], "bias_initializer": {"class_name": "Zeros", "config": {}}, "kernel_constraint": null, "activation": "linear", "trainable": true, "activity_regularizer": null, "kernel_size": [3, 3], "filters": 64, "name": "conv2d_132", "kernel_regularizer": null, "data_format": "channels_last", "kernel_initializer": {"class_name": "VarianceScaling", "config": {"scale": 1.0, "seed": null, "mode": "fan_avg", "distribution": "uniform"}}, "strides": [1, 1], "use_bias": true, "padding": "same", "bias_regularizer": null}}, {"inbound_nodes": [[["activation_147", 0, 0, {}]]], "class_name": "Conv2D", "name": "conv2d_134", "config": {"bias_constraint": null, "dilation_rate": [1, 1], "bias_initializer": {"class_name": "Zeros", "config": {}}, "kernel_constraint": null, "activation": "linear", "trainable": true, "activity_regularizer": null, "kernel_size": [3, 3], "filters": 64, "name": "conv2d_134", "kernel_regularizer": null, "data_format": "channels_last", "kernel_initializer": {"class_name": "VarianceScaling", "config": {"scale": 1.0, "seed": null, "mode": "fan_avg", "distribution": "uniform"}}, "strides": [1, 1], "use_bias": true, "padding": "same", "bias_regularizer": null}}, {"inbound_nodes": [[["activation_149", 0, 0, {}]]], "class_name": "Conv2D", "name": "conv2d_136", "config": {"bias_constraint": null, "dilation_rate": [1, 1], "bias_initializer": {"class_name": "Zeros", "config": {}}, "kernel_constraint": null, "activation": "linear", "trainable": true, "activity_regularizer": null, "kernel_size": [3, 3], "filters": 64, "name": "conv2d_136", "kernel_regularizer": null, "data_format": "channels_last", "kernel_initializer": {"class_name": "VarianceScaling", "config": {"scale": 1.0, "seed": null, "mode": "fan_avg", "distribution": "uniform"}}, "strides": [1, 1], "use_bias": true, "padding": "same", "bias_regularizer": null}}, {"inbound_nodes": [[["conv2d_122", 0, 0, {}]]], "class_name": "BatchNormalization", "name": "batch_normalization_122", "config": {"epsilon": 0.001, "axis": -1, "moving_variance_initializer": {"class_name": "Ones", "config": {}}, "gamma_regularizer": null, "beta_initializer": {"class_name": "Zeros", "config": {}}, "center": true, "gamma_constraint": null, "moving_mean_initializer": {"class_name": "Zeros", "config": {}}, "beta_regularizer": null, "name": "batch_normalization_122", "scale": true, "gamma_initializer": {"class_name": "Ones", "config": {}}, "beta_constraint": null, "trainable": true, "momentum": 0.99}}, {"inbound_nodes": [[["conv2d_124", 0, 0, {}]]], "class_name": "BatchNormalization", "name": "batch_normalization_124", "config": {"epsilon": 0.001, "axis": -1, "moving_variance_initializer": {"class_name": "Ones", "config": {}}, "gamma_regularizer": null, "beta_initializer": {"class_name": "Zeros", "config": {}}, "center": true, "gamma_constraint": null, "moving_mean_initializer": {"class_name": "Zeros", "config": {}}, "beta_regularizer": null, "name": "batch_normalization_124", "scale": true, "gamma_initializer": {"class_name": "Ones", "config": {}}, "beta_constraint": null, "trainable": true, "momentum": 0.99}}, {"inbound_nodes": [[["conv2d_126", 0, 0, {}]]], "class_name": "BatchNormalization", "name": "batch_normalization_126", "config": {"epsilon": 0.001, "axis": -1, "moving_variance_initializer": {"class_name": "Ones", "config": {}}, "gamma_regularizer": null, "beta_initializer": {"class_name": "Zeros", "config": {}}, "center": true, "gamma_constraint": null, "moving_mean_initializer": {"class_name": "Zeros", "config": {}}, "beta_regularizer": null, "name": "batch_normalization_126", "scale": true, "gamma_initializer": {"class_name": "Ones", "config": {}}, "beta_constraint": null, "trainable": true, "momentum": 0.99}}, {"inbound_nodes": [[["conv2d_128", 0, 0, {}]]], "class_name": "BatchNormalization", "name": "batch_normalization_128", "config": {"epsilon": 0.001, "axis": -1, "moving_variance_initializer": {"class_name": "Ones", "config": {}}, "gamma_regularizer": null, "beta_initializer": {"class_name": "Zeros", "config": {}}, "center": true, "gamma_constraint": null, "moving_mean_initializer": {"class_name": "Zeros", "config": {}}, "beta_regularizer": null, "name": "batch_normalization_128", "scale": true, "gamma_initializer": {"class_name": "Ones", "config": {}}, "beta_constraint": null, "trainable": true, "momentum": 0.99}}, {"inbound_nodes": [[["conv2d_130", 0, 0, {}]]], "class_name": "BatchNormalization", "name": "batch_normalization_130", "config": {"epsilon": 0.001, "axis": -1, "moving_variance_initializer": {"class_name": "Ones", "config": {}}, "gamma_regularizer": null, "beta_initializer": {"class_name": "Zeros", "config": {}}, "center": true, "gamma_constraint": null, "moving_mean_initializer": {"class_name": "Zeros", "config": {}}, "beta_regularizer": null, "name": "batch_normalization_130", "scale": true, "gamma_initializer": {"class_name": "Ones", "config": {}}, "beta_constraint": null, "trainable": true, "momentum": 0.99}}, {"inbound_nodes": [[["conv2d_132", 0, 0, {}]]], "class_name": "BatchNormalization", "name": "batch_normalization_132", "config": {"epsilon": 0.001, "axis": -1, "moving_variance_initializer": {"class_name": "Ones", "config": {}}, "gamma_regularizer": null, "beta_initializer": {"class_name": "Zeros", "config": {}}, "center": true, "gamma_constraint": null, "moving_mean_initializer": {"class_name": "Zeros", "config": {}}, "beta_regularizer": null, "name": "batch_normalization_132", "scale": true, "gamma_initializer": {"class_name": "Ones", "config": {}}, "beta_constraint": null, "trainable": true, "momentum": 0.99}}, {"inbound_nodes": [[["conv2d_134", 0, 0, {}]]], "class_name": "BatchNormalization", "name": "batch_normalization_134", "config": {"epsilon": 0.001, "axis": -1, "moving_variance_initializer": {"class_name": "Ones", "config": {}}, "gamma_regularizer": null, "beta_initializer": {"class_name": "Zeros", "config": {}}, "center": true, "gamma_constraint": null, "moving_mean_initializer": {"class_name": "Zeros", "config": {}}, "beta_regularizer": null, "name": "batch_normalization_134", "scale": true, "gamma_initializer": {"class_name": "Ones", "config": {}}, "beta_constraint": null, "trainable": true, "momentum": 0.99}}, {"inbound_nodes": [[["conv2d_136", 0, 0, {}]]], "class_name": "BatchNormalization", "name": "batch_normalization_136", "config": {"epsilon": 0.001, "axis": -1, "moving_variance_initializer": {"class_name": "Ones", "config": {}}, "gamma_regularizer": null, "beta_initializer": {"class_name": "Zeros", "config": {}}, "center": true, "gamma_constraint": null, "moving_mean_initializer": {"class_name": "Zeros", "config": {}}, "beta_regularizer": null, "name": "batch_normalization_136", "scale": true, "gamma_initializer": {"class_name": "Ones", "config": {}}, "beta_constraint": null, "trainable": true, "momentum": 0.99}}, {"inbound_nodes": [[["batch_normalization_122", 0, 0, {}]]], "class_name": "Activation", "name": "activation_136", "config": {"activation": "relu", "trainable": true, "name": "activation_136"}}, {"inbound_nodes": [[["batch_normalization_124", 0, 0, {}]]], "class_name": "Activation", "name": "activation_138", "config": {"activation": "relu", "trainable": true, "name": "activation_138"}}, {"inbound_nodes": [[["batch_normalization_126", 0, 0, {}]]], "class_name": "Activation", "name": "activation_140", "config": {"activation": "relu", "trainable": true, "name": "activation_140"}}, {"inbound_nodes": [[["batch_normalization_128", 0, 0, {}]]], "class_name": "Activation", "name": "activation_142", "config": {"activation": "relu", "trainable": true, "name": "activation_142"}}, {"inbound_nodes": [[["batch_normalization_130", 0, 0, {}]]], "class_name": "Activation", "name": "activation_144", "config": {"activation": "relu", "trainable": true, "name": "activation_144"}}, {"inbound_nodes": [[["batch_normalization_132", 0, 0, {}]]], "class_name": "Activation", "name": "activation_146", "config": {"activation": "relu", "trainable": true, "name": "activation_146"}}, {"inbound_nodes": [[["batch_normalization_134", 0, 0, {}]]], "class_name": "Activation", "name": "activation_148", "config": {"activation": "relu", "trainable": true, "name": "activation_148"}}, {"inbound_nodes": [[["batch_normalization_136", 0, 0, {}]]], "class_name": "Activation", "name": "activation_150", "config": {"activation": "relu", "trainable": true, "name": "activation_150"}}, {"inbound_nodes": [[["activation_136", 0, 0, {}], ["activation_138", 0, 0, {}], ["activation_140", 0, 0, {}], ["activation_142", 0, 0, {}], ["activation_144", 0, 0, {}], ["activation_146", 0, 0, {}], ["activation_148", 0, 0, {}], ["activation_150", 0, 0, {}]]], "class_name": "Concatenate", "name": "concatenate_10", "config": {"axis": 3, "trainable": true, "name": "concatenate_10"}}, {"inbound_nodes": [[["concatenate_10", 0, 0, {}]]], "class_name": "Conv2D", "name": "conv2d_137", "config": {"bias_constraint": null, "dilation_rate": [1, 1], "bias_initializer": {"class_name": "Zeros", "config": {}}, "kernel_constraint": null, "activation": "linear", "trainable": true, "activity_regularizer": null, "kernel_size": [1, 1], "filters": 256, "name": "conv2d_137", "kernel_regularizer": null, "data_format": "channels_last", "kernel_initializer": {"class_name": "VarianceScaling", "config": {"scale": 1.0, "seed": null, "mode": "fan_avg", "distribution": "uniform"}}, "strides": [1, 1], "use_bias": true, "padding": "same", "bias_regularizer": null}}, {"inbound_nodes": [[["conv2d_137", 0, 0, {}]]], "class_name": "BatchNormalization", "name": "batch_normalization_137", "config": {"epsilon": 0.001, "axis": -1, "moving_variance_initializer": {"class_name": "Ones", "config": {}}, "gamma_regularizer": null, "beta_initializer": {"class_name": "Zeros", "config": {}}, "center": true, "gamma_constraint": null, "moving_mean_initializer": {"class_name": "Zeros", "config": {}}, "beta_regularizer": null, "name": "batch_normalization_137", "scale": true, "gamma_initializer": {"class_name": "Ones", "config": {}}, "beta_constraint": null, "trainable": true, "momentum": 0.99}}, {"inbound_nodes": [[["batch_normalization_137", 0, 0, {}]]], "class_name": "GlobalAveragePooling2D", "name": "global_average_pooling2d_8", "config": {"data_format": "channels_last", "trainable": true, "name": "global_average_pooling2d_8"}}, {"inbound_nodes": [[["global_average_pooling2d_8", 0, 0, {}]]], "class_name": "Dense", "name": "dense_15", "config": {"bias_constraint": null, "kernel_constraint": null, "activation": "linear", "trainable": true, "activity_regularizer": null, "use_bias": true, "bias_regularizer": null, "kernel_regularizer": null, "kernel_initializer": {"class_name": "VarianceScaling", "config": {"scale": 1.0, "seed": null, "mode": "fan_avg", "distribution": "uniform"}}, "units": 64, "name": "dense_15", "bias_initializer": {"class_name": "Zeros", "config": {}}}}, {"inbound_nodes": [[["dense_15", 0, 0, {}]]], "class_name": "Activation", "name": "activation_151", "config": {"activation": "relu", "trainable": true, "name": "activation_151"}}, {"inbound_nodes": [[["activation_151", 0, 0, {}]]], "class_name": "Dense", "name": "dense_16", "config": {"bias_constraint": null, "kernel_constraint": null, "activation": "linear", "trainable": true, "activity_regularizer": null, "use_bias": true, "bias_regularizer": null, "kernel_regularizer": null, "kernel_initializer": {"class_name": "VarianceScaling", "config": {"scale": 1.0, "seed": null, "mode": "fan_avg", "distribution": "uniform"}}, "units": 256, "name": "dense_16", "bias_initializer": {"class_name": "Zeros", "config": {}}}}, {"inbound_nodes": [[["dense_16", 0, 0, {}]]], "class_name": "Activation", "name": "activation_152", "config": {"activation": "sigmoid", "trainable": true, "name": "activation_152"}}, {"inbound_nodes": [[["activation_152", 0, 0, {}]]], "class_name": "Reshape", "name": "reshape_8", "config": {"target_shape": [1, 1, 256], "trainable": true, "name": "reshape_8"}}, {"inbound_nodes": [[["batch_normalization_137", 0, 0, {}], ["reshape_8", 0, 0, {}]]], "class_name": "Multiply", "name": "multiply_8", "config": {"trainable": true, "name": "multiply_8"}}, {"inbound_nodes": [[["activation_134", 0, 0, {}], ["multiply_8", 0, 0, {}]]], "class_name": "Add", "name": "add_8", "config": {"trainable": true, "name": "add_8"}}, {"inbound_nodes": [[["add_8", 0, 0, {}]]], "class_name": "Activation", "name": "activation_153", "config": {"activation": "relu", "trainable": true, "name": "activation_153"}}, {"inbound_nodes": [[["activation_153", 0, 0, {}]]], "class_name": "Conv2D", "name": "conv2d_138", "config": {"bias_constraint": null, "dilation_rate": [1, 1], "bias_initializer": {"class_name": "Zeros", "config": {}}, "kernel_constraint": null, "activation": "linear", "trainable": true, "activity_regularizer": null, "kernel_size": [1, 1], "filters": 64, "name": "conv2d_138", "kernel_regularizer": null, "data_format": "channels_last", "kernel_initializer": {"class_name": "VarianceScaling", "config": {"scale": 1.0, "seed": null, "mode": "fan_avg", "distribution": "uniform"}}, "strides": [1, 1], "use_bias": true, "padding": "same", "bias_regularizer": null}}, {"inbound_nodes": [[["activation_153", 0, 0, {}]]], "class_name": "Conv2D", "name": "conv2d_140", "config": {"bias_constraint": null, "dilation_rate": [1, 1], "bias_initializer": {"class_name": "Zeros", "config": {}}, "kernel_constraint": null, "activation": "linear", "trainable": true, "activity_regularizer": null, "kernel_size": [1, 1], "filters": 64, "name": "conv2d_140", "kernel_regularizer": null, "data_format": "channels_last", "kernel_initializer": {"class_name": "VarianceScaling", "config": {"scale": 1.0, "seed": null, "mode": "fan_avg", "distribution": "uniform"}}, "strides": [1, 1], "use_bias": true, "padding": "same", "bias_regularizer": null}}, {"inbound_nodes": [[["activation_153", 0, 0, {}]]], "class_name": "Conv2D", "name": "conv2d_142", "config": {"bias_constraint": null, "dilation_rate": [1, 1], "bias_initializer": {"class_name": "Zeros", "config": {}}, "kernel_constraint": null, "activation": "linear", "trainable": true, "activity_regularizer": null, "kernel_size": [1, 1], "filters": 64, "name": "conv2d_142", "kernel_regularizer": null, "data_format": "channels_last", "kernel_initializer": {"class_name": "VarianceScaling", "config": {"scale": 1.0, "seed": null, "mode": "fan_avg", "distribution": "uniform"}}, "strides": [1, 1], "use_bias": true, "padding": "same", "bias_regularizer": null}}, {"inbound_nodes": [[["activation_153", 0, 0, {}]]], "class_name": "Conv2D", "name": "conv2d_144", "config": {"bias_constraint": null, "dilation_rate": [1, 1], "bias_initializer": {"class_name": "Zeros", "config": {}}, "kernel_constraint": null, "activation": "linear", "trainable": true, "activity_regularizer": null, "kernel_size": [1, 1], "filters": 64, "name": "conv2d_144", "kernel_regularizer": null, "data_format": "channels_last", "kernel_initializer": {"class_name": "VarianceScaling", "config": {"scale": 1.0, "seed": null, "mode": "fan_avg", "distribution": "uniform"}}, "strides": [1, 1], "use_bias": true, "padding": "same", "bias_regularizer": null}}, {"inbound_nodes": [[["activation_153", 0, 0, {}]]], "class_name": "Conv2D", "name": "conv2d_146", "config": {"bias_constraint": null, "dilation_rate": [1, 1], "bias_initializer": {"class_name": "Zeros", "config": {}}, "kernel_constraint": null, "activation": "linear", "trainable": true, "activity_regularizer": null, "kernel_size": [1, 1], "filters": 64, "name": "conv2d_146", "kernel_regularizer": null, "data_format": "channels_last", "kernel_initializer": {"class_name": "VarianceScaling", "config": {"scale": 1.0, "seed": null, "mode": "fan_avg", "distribution": "uniform"}}, "strides": [1, 1], "use_bias": true, "padding": "same", "bias_regularizer": null}}, {"inbound_nodes": [[["activation_153", 0, 0, {}]]], "class_name": "Conv2D", "name": "conv2d_148", "config": {"bias_constraint": null, "dilation_rate": [1, 1], "bias_initializer": {"class_name": "Zeros", "config": {}}, "kernel_constraint": null, "activation": "linear", "trainable": true, "activity_regularizer": null, "kernel_size": [1, 1], "filters": 64, "name": "conv2d_148", "kernel_regularizer": null, "data_format": "channels_last", "kernel_initializer": {"class_name": "VarianceScaling", "config": {"scale": 1.0, "seed": null, "mode": "fan_avg", "distribution": "uniform"}}, "strides": [1, 1], "use_bias": true, "padding": "same", "bias_regularizer": null}}, {"inbound_nodes": [[["activation_153", 0, 0, {}]]], "class_name": "Conv2D", "name": "conv2d_150", "config": {"bias_constraint": null, "dilation_rate": [1, 1], "bias_initializer": {"class_name": "Zeros", "config": {}}, "kernel_constraint": null, "activation": "linear", "trainable": true, "activity_regularizer": null, "kernel_size": [1, 1], "filters": 64, "name": "conv2d_150", "kernel_regularizer": null, "data_format": "channels_last", "kernel_initializer": {"class_name": "VarianceScaling", "config": {"scale": 1.0, "seed": null, "mode": "fan_avg", "distribution": "uniform"}}, "strides": [1, 1], "use_bias": true, "padding": "same", "bias_regularizer": null}}, {"inbound_nodes": [[["activation_153", 0, 0, {}]]], "class_name": "Conv2D", "name": "conv2d_152", "config": {"bias_constraint": null, "dilation_rate": [1, 1], "bias_initializer": {"class_name": "Zeros", "config": {}}, "kernel_constraint": null, "activation": "linear", "trainable": true, "activity_regularizer": null, "kernel_size": [1, 1], "filters": 64, "name": "conv2d_152", "kernel_regularizer": null, "data_format": "channels_last", "kernel_initializer": {"class_name": "VarianceScaling", "config": {"scale": 1.0, "seed": null, "mode": "fan_avg", "distribution": "uniform"}}, "strides": [1, 1], "use_bias": true, "padding": "same", "bias_regularizer": null}}, {"inbound_nodes": [[["conv2d_138", 0, 0, {}]]], "class_name": "BatchNormalization", "name": "batch_normalization_138", "config": {"epsilon": 0.001, "axis": -1, "moving_variance_initializer": {"class_name": "Ones", "config": {}}, "gamma_regularizer": null, "beta_initializer": {"class_name": "Zeros", "config": {}}, "center": true, "gamma_constraint": null, "moving_mean_initializer": {"class_name": "Zeros", "config": {}}, "beta_regularizer": null, "name": "batch_normalization_138", "scale": true, "gamma_initializer": {"class_name": "Ones", "config": {}}, "beta_constraint": null, "trainable": true, "momentum": 0.99}}, {"inbound_nodes": [[["conv2d_140", 0, 0, {}]]], "class_name": "BatchNormalization", "name": "batch_normalization_140", "config": {"epsilon": 0.001, "axis": -1, "moving_variance_initializer": {"class_name": "Ones", "config": {}}, "gamma_regularizer": null, "beta_initializer": {"class_name": "Zeros", "config": {}}, "center": true, "gamma_constraint": null, "moving_mean_initializer": {"class_name": "Zeros", "config": {}}, "beta_regularizer": null, "name": "batch_normalization_140", "scale": true, "gamma_initializer": {"class_name": "Ones", "config": {}}, "beta_constraint": null, "trainable": true, "momentum": 0.99}}, {"inbound_nodes": [[["conv2d_142", 0, 0, {}]]], "class_name": "BatchNormalization", "name": "batch_normalization_142", "config": {"epsilon": 0.001, "axis": -1, "moving_variance_initializer": {"class_name": "Ones", "config": {}}, "gamma_regularizer": null, "beta_initializer": {"class_name": "Zeros", "config": {}}, "center": true, "gamma_constraint": null, "moving_mean_initializer": {"class_name": "Zeros", "config": {}}, "beta_regularizer": null, "name": "batch_normalization_142", "scale": true, "gamma_initializer": {"class_name": "Ones", "config": {}}, "beta_constraint": null, "trainable": true, "momentum": 0.99}}, {"inbound_nodes": [[["conv2d_144", 0, 0, {}]]], "class_name": "BatchNormalization", "name": "batch_normalization_144", "config": {"epsilon": 0.001, "axis": -1, "moving_variance_initializer": {"class_name": "Ones", "config": {}}, "gamma_regularizer": null, "beta_initializer": {"class_name": "Zeros", "config": {}}, "center": true, "gamma_constraint": null, "moving_mean_initializer": {"class_name": "Zeros", "config": {}}, "beta_regularizer": null, "name": "batch_normalization_144", "scale": true, "gamma_initializer": {"class_name": "Ones", "config": {}}, "beta_constraint": null, "trainable": true, "momentum": 0.99}}, {"inbound_nodes": [[["conv2d_146", 0, 0, {}]]], "class_name": "BatchNormalization", "name": "batch_normalization_146", "config": {"epsilon": 0.001, "axis": -1, "moving_variance_initializer": {"class_name": "Ones", "config": {}}, "gamma_regularizer": null, "beta_initializer": {"class_name": "Zeros", "config": {}}, "center": true, "gamma_constraint": null, "moving_mean_initializer": {"class_name": "Zeros", "config": {}}, "beta_regularizer": null, "name": "batch_normalization_146", "scale": true, "gamma_initializer": {"class_name": "Ones", "config": {}}, "beta_constraint": null, "trainable": true, "momentum": 0.99}}, {"inbound_nodes": [[["conv2d_148", 0, 0, {}]]], "class_name": "BatchNormalization", "name": "batch_normalization_148", "config": {"epsilon": 0.001, "axis": -1, "moving_variance_initializer": {"class_name": "Ones", "config": {}}, "gamma_regularizer": null, "beta_initializer": {"class_name": "Zeros", "config": {}}, "center": true, "gamma_constraint": null, "moving_mean_initializer": {"class_name": "Zeros", "config": {}}, "beta_regularizer": null, "name": "batch_normalization_148", "scale": true, "gamma_initializer": {"class_name": "Ones", "config": {}}, "beta_constraint": null, "trainable": true, "momentum": 0.99}}, {"inbound_nodes": [[["conv2d_150", 0, 0, {}]]], "class_name": "BatchNormalization", "name": "batch_normalization_150", "config": {"epsilon": 0.001, "axis": -1, "moving_variance_initializer": {"class_name": "Ones", "config": {}}, "gamma_regularizer": null, "beta_initializer": {"class_name": "Zeros", "config": {}}, "center": true, "gamma_constraint": null, "moving_mean_initializer": {"class_name": "Zeros", "config": {}}, "beta_regularizer": null, "name": "batch_normalization_150", "scale": true, "gamma_initializer": {"class_name": "Ones", "config": {}}, "beta_constraint": null, "trainable": true, "momentum": 0.99}}, {"inbound_nodes": [[["conv2d_152", 0, 0, {}]]], "class_name": "BatchNormalization", "name": "batch_normalization_152", "config": {"epsilon": 0.001, "axis": -1, "moving_variance_initializer": {"class_name": "Ones", "config": {}}, "gamma_regularizer": null, "beta_initializer": {"class_name": "Zeros", "config": {}}, "center": true, "gamma_constraint": null, "moving_mean_initializer": {"class_name": "Zeros", "config": {}}, "beta_regularizer": null, "name": "batch_normalization_152", "scale": true, "gamma_initializer": {"class_name": "Ones", "config": {}}, "beta_constraint": null, "trainable": true, "momentum": 0.99}}, {"inbound_nodes": [[["batch_normalization_138", 0, 0, {}]]], "class_name": "Activation", "name": "activation_154", "config": {"activation": "relu", "trainable": true, "name": "activation_154"}}, {"inbound_nodes": [[["batch_normalization_140", 0, 0, {}]]], "class_name": "Activation", "name": "activation_156", "config": {"activation": "relu", "trainable": true, "name": "activation_156"}}, {"inbound_nodes": [[["batch_normalization_142", 0, 0, {}]]], "class_name": "Activation", "name": "activation_158", "config": {"activation": "relu", "trainable": true, "name": "activation_158"}}, {"inbound_nodes": [[["batch_normalization_144", 0, 0, {}]]], "class_name": "Activation", "name": "activation_160", "config": {"activation": "relu", "trainable": true, "name": "activation_160"}}, {"inbound_nodes": [[["batch_normalization_146", 0, 0, {}]]], "class_name": "Activation", "name": "activation_162", "config": {"activation": "relu", "trainable": true, "name": "activation_162"}}, {"inbound_nodes": [[["batch_normalization_148", 0, 0, {}]]], "class_name": "Activation", "name": "activation_164", "config": {"activation": "relu", "trainable": true, "name": "activation_164"}}, {"inbound_nodes": [[["batch_normalization_150", 0, 0, {}]]], "class_name": "Activation", "name": "activation_166", "config": {"activation": "relu", "trainable": true, "name": "activation_166"}}, {"inbound_nodes": [[["batch_normalization_152", 0, 0, {}]]], "class_name": "Activation", "name": "activation_168", "config": {"activation": "relu", "trainable": true, "name": "activation_168"}}, {"inbound_nodes": [[["activation_154", 0, 0, {}]]], "class_name": "Conv2D", "name": "conv2d_139", "config": {"bias_constraint": null, "dilation_rate": [1, 1], "bias_initializer": {"class_name": "Zeros", "config": {}}, "kernel_constraint": null, "activation": "linear", "trainable": true, "activity_regularizer": null, "kernel_size": [3, 3], "filters": 64, "name": "conv2d_139", "kernel_regularizer": null, "data_format": "channels_last", "kernel_initializer": {"class_name": "VarianceScaling", "config": {"scale": 1.0, "seed": null, "mode": "fan_avg", "distribution": "uniform"}}, "strides": [1, 1], "use_bias": true, "padding": "same", "bias_regularizer": null}}, {"inbound_nodes": [[["activation_156", 0, 0, {}]]], "class_name": "Conv2D", "name": "conv2d_141", "config": {"bias_constraint": null, "dilation_rate": [1, 1], "bias_initializer": {"class_name": "Zeros", "config": {}}, "kernel_constraint": null, "activation": "linear", "trainable": true, "activity_regularizer": null, "kernel_size": [3, 3], "filters": 64, "name": "conv2d_141", "kernel_regularizer": null, "data_format": "channels_last", "kernel_initializer": {"class_name": "VarianceScaling", "config": {"scale": 1.0, "seed": null, "mode": "fan_avg", "distribution": "uniform"}}, "strides": [1, 1], "use_bias": true, "padding": "same", "bias_regularizer": null}}, {"inbound_nodes": [[["activation_158", 0, 0, {}]]], "class_name": "Conv2D", "name": "conv2d_143", "config": {"bias_constraint": null, "dilation_rate": [1, 1], "bias_initializer": {"class_name": "Zeros", "config": {}}, "kernel_constraint": null, "activation": "linear", "trainable": true, "activity_regularizer": null, "kernel_size": [3, 3], "filters": 64, "name": "conv2d_143", "kernel_regularizer": null, "data_format": "channels_last", "kernel_initializer": {"class_name": "VarianceScaling", "config": {"scale": 1.0, "seed": null, "mode": "fan_avg", "distribution": "uniform"}}, "strides": [1, 1], "use_bias": true, "padding": "same", "bias_regularizer": null}}, {"inbound_nodes": [[["activation_160", 0, 0, {}]]], "class_name": "Conv2D", "name": "conv2d_145", "config": {"bias_constraint": null, "dilation_rate": [1, 1], "bias_initializer": {"class_name": "Zeros", "config": {}}, "kernel_constraint": null, "activation": "linear", "trainable": true, "activity_regularizer": null, "kernel_size": [3, 3], "filters": 64, "name": "conv2d_145", "kernel_regularizer": null, "data_format": "channels_last", "kernel_initializer": {"class_name": "VarianceScaling", "config": {"scale": 1.0, "seed": null, "mode": "fan_avg", "distribution": "uniform"}}, "strides": [1, 1], "use_bias": true, "padding": "same", "bias_regularizer": null}}, {"inbound_nodes": [[["activation_162", 0, 0, {}]]], "class_name": "Conv2D", "name": "conv2d_147", "config": {"bias_constraint": null, "dilation_rate": [1, 1], "bias_initializer": {"class_name": "Zeros", "config": {}}, "kernel_constraint": null, "activation": "linear", "trainable": true, "activity_regularizer": null, "kernel_size": [3, 3], "filters": 64, "name": "conv2d_147", "kernel_regularizer": null, "data_format": "channels_last", "kernel_initializer": {"class_name": "VarianceScaling", "config": {"scale": 1.0, "seed": null, "mode": "fan_avg", "distribution": "uniform"}}, "strides": [1, 1], "use_bias": true, "padding": "same", "bias_regularizer": null}}, {"inbound_nodes": [[["activation_164", 0, 0, {}]]], "class_name": "Conv2D", "name": "conv2d_149", "config": {"bias_constraint": null, "dilation_rate": [1, 1], "bias_initializer": {"class_name": "Zeros", "config": {}}, "kernel_constraint": null, "activation": "linear", "trainable": true, "activity_regularizer": null, "kernel_size": [3, 3], "filters": 64, "name": "conv2d_149", "kernel_regularizer": null, "data_format": "channels_last", "kernel_initializer": {"class_name": "VarianceScaling", "config": {"scale": 1.0, "seed": null, "mode": "fan_avg", "distribution": "uniform"}}, "strides": [1, 1], "use_bias": true, "padding": "same", "bias_regularizer": null}}, {"inbound_nodes": [[["activation_166", 0, 0, {}]]], "class_name": "Conv2D", "name": "conv2d_151", "config": {"bias_constraint": null, "dilation_rate": [1, 1], "bias_initializer": {"class_name": "Zeros", "config": {}}, "kernel_constraint": null, "activation": "linear", "trainable": true, "activity_regularizer": null, "kernel_size": [3, 3], "filters": 64, "name": "conv2d_151", "kernel_regularizer": null, "data_format": "channels_last", "kernel_initializer": {"class_name": "VarianceScaling", "config": {"scale": 1.0, "seed": null, "mode": "fan_avg", "distribution": "uniform"}}, "strides": [1, 1], "use_bias": true, "padding": "same", "bias_regularizer": null}}, {"inbound_nodes": [[["activation_168", 0, 0, {}]]], "class_name": "Conv2D", "name": "conv2d_153", "config": {"bias_constraint": null, "dilation_rate": [1, 1], "bias_initializer": {"class_name": "Zeros", "config": {}}, "kernel_constraint": null, "activation": "linear", "trainable": true, "activity_regularizer": null, "kernel_size": [3, 3], "filters": 64, "name": "conv2d_153", "kernel_regularizer": null, "data_format": "channels_last", "kernel_initializer": {"class_name": "VarianceScaling", "config": {"scale": 1.0, "seed": null, "mode": "fan_avg", "distribution": "uniform"}}, "strides": [1, 1], "use_bias": true, "padding": "same", "bias_regularizer": null}}, {"inbound_nodes": [[["conv2d_139", 0, 0, {}]]], "class_name": "BatchNormalization", "name": "batch_normalization_139", "config": {"epsilon": 0.001, "axis": -1, "moving_variance_initializer": {"class_name": "Ones", "config": {}}, "gamma_regularizer": null, "beta_initializer": {"class_name": "Zeros", "config": {}}, "center": true, "gamma_constraint": null, "moving_mean_initializer": {"class_name": "Zeros", "config": {}}, "beta_regularizer": null, "name": "batch_normalization_139", "scale": true, "gamma_initializer": {"class_name": "Ones", "config": {}}, "beta_constraint": null, "trainable": true, "momentum": 0.99}}, {"inbound_nodes": [[["conv2d_141", 0, 0, {}]]], "class_name": "BatchNormalization", "name": "batch_normalization_141", "config": {"epsilon": 0.001, "axis": -1, "moving_variance_initializer": {"class_name": "Ones", "config": {}}, "gamma_regularizer": null, "beta_initializer": {"class_name": "Zeros", "config": {}}, "center": true, "gamma_constraint": null, "moving_mean_initializer": {"class_name": "Zeros", "config": {}}, "beta_regularizer": null, "name": "batch_normalization_141", "scale": true, "gamma_initializer": {"class_name": "Ones", "config": {}}, "beta_constraint": null, "trainable": true, "momentum": 0.99}}, {"inbound_nodes": [[["conv2d_143", 0, 0, {}]]], "class_name": "BatchNormalization", "name": "batch_normalization_143", "config": {"epsilon": 0.001, "axis": -1, "moving_variance_initializer": {"class_name": "Ones", "config": {}}, "gamma_regularizer": null, "beta_initializer": {"class_name": "Zeros", "config": {}}, "center": true, "gamma_constraint": null, "moving_mean_initializer": {"class_name": "Zeros", "config": {}}, "beta_regularizer": null, "name": "batch_normalization_143", "scale": true, "gamma_initializer": {"class_name": "Ones", "config": {}}, "beta_constraint": null, "trainable": true, "momentum": 0.99}}, {"inbound_nodes": [[["conv2d_145", 0, 0, {}]]], "class_name": "BatchNormalization", "name": "batch_normalization_145", "config": {"epsilon": 0.001, "axis": -1, "moving_variance_initializer": {"class_name": "Ones", "config": {}}, "gamma_regularizer": null, "beta_initializer": {"class_name": "Zeros", "config": {}}, "center": true, "gamma_constraint": null, "moving_mean_initializer": {"class_name": "Zeros", "config": {}}, "beta_regularizer": null, "name": "batch_normalization_145", "scale": true, "gamma_initializer": {"class_name": "Ones", "config": {}}, "beta_constraint": null, "trainable": true, "momentum": 0.99}}, {"inbound_nodes": [[["conv2d_147", 0, 0, {}]]], "class_name": "BatchNormalization", "name": "batch_normalization_147", "config": {"epsilon": 0.001, "axis": -1, "moving_variance_initializer": {"class_name": "Ones", "config": {}}, "gamma_regularizer": null, "beta_initializer": {"class_name": "Zeros", "config": {}}, "center": true, "gamma_constraint": null, "moving_mean_initializer": {"class_name": "Zeros", "config": {}}, "beta_regularizer": null, "name": "batch_normalization_147", "scale": true, "gamma_initializer": {"class_name": "Ones", "config": {}}, "beta_constraint": null, "trainable": true, "momentum": 0.99}}, {"inbound_nodes": [[["conv2d_149", 0, 0, {}]]], "class_name": "BatchNormalization", "name": "batch_normalization_149", "config": {"epsilon": 0.001, "axis": -1, "moving_variance_initializer": {"class_name": "Ones", "config": {}}, "gamma_regularizer": null, "beta_initializer": {"class_name": "Zeros", "config": {}}, "center": true, "gamma_constraint": null, "moving_mean_initializer": {"class_name": "Zeros", "config": {}}, "beta_regularizer": null, "name": "batch_normalization_149", "scale": true, "gamma_initializer": {"class_name": "Ones", "config": {}}, "beta_constraint": null, "trainable": true, "momentum": 0.99}}, {"inbound_nodes": [[["conv2d_151", 0, 0, {}]]], "class_name": "BatchNormalization", "name": "batch_normalization_151", "config": {"epsilon": 0.001, "axis": -1, "moving_variance_initializer": {"class_name": "Ones", "config": {}}, "gamma_regularizer": null, "beta_initializer": {"class_name": "Zeros", "config": {}}, "center": true, "gamma_constraint": null, "moving_mean_initializer": {"class_name": "Zeros", "config": {}}, "beta_regularizer": null, "name": "batch_normalization_151", "scale": true, "gamma_initializer": {"class_name": "Ones", "config": {}}, "beta_constraint": null, "trainable": true, "momentum": 0.99}}, {"inbound_nodes": [[["conv2d_153", 0, 0, {}]]], "class_name": "BatchNormalization", "name": "batch_normalization_153", "config": {"epsilon": 0.001, "axis": -1, "moving_variance_initializer": {"class_name": "Ones", "config": {}}, "gamma_regularizer": null, "beta_initializer": {"class_name": "Zeros", "config": {}}, "center": true, "gamma_constraint": null, "moving_mean_initializer": {"class_name": "Zeros", "config": {}}, "beta_regularizer": null, "name": "batch_normalization_153", "scale": true, "gamma_initializer": {"class_name": "Ones", "config": {}}, "beta_constraint": null, "trainable": true, "momentum": 0.99}}, {"inbound_nodes": [[["batch_normalization_139", 0, 0, {}]]], "class_name": "Activation", "name": "activation_155", "config": {"activation": "relu", "trainable": true, "name": "activation_155"}}, {"inbound_nodes": [[["batch_normalization_141", 0, 0, {}]]], "class_name": "Activation", "name": "activation_157", "config": {"activation": "relu", "trainable": true, "name": "activation_157"}}, {"inbound_nodes": [[["batch_normalization_143", 0, 0, {}]]], "class_name": "Activation", "name": "activation_159", "config": {"activation": "relu", "trainable": true, "name": "activation_159"}}, {"inbound_nodes": [[["batch_normalization_145", 0, 0, {}]]], "class_name": "Activation", "name": "activation_161", "config": {"activation": "relu", "trainable": true, "name": "activation_161"}}, {"inbound_nodes": [[["batch_normalization_147", 0, 0, {}]]], "class_name": "Activation", "name": "activation_163", "config": {"activation": "relu", "trainable": true, "name": "activation_163"}}, {"inbound_nodes": [[["batch_normalization_149", 0, 0, {}]]], "class_name": "Activation", "name": "activation_165", "config": {"activation": "relu", "trainable": true, "name": "activation_165"}}, {"inbound_nodes": [[["batch_normalization_151", 0, 0, {}]]], "class_name": "Activation", "name": "activation_167", "config": {"activation": "relu", "trainable": true, "name": "activation_167"}}, {"inbound_nodes": [[["batch_normalization_153", 0, 0, {}]]], "class_name": "Activation", "name": "activation_169", "config": {"activation": "relu", "trainable": true, "name": "activation_169"}}, {"inbound_nodes": [[["activation_155", 0, 0, {}], ["activation_157", 0, 0, {}], ["activation_159", 0, 0, {}], ["activation_161", 0, 0, {}], ["activation_163", 0, 0, {}], ["activation_165", 0, 0, {}], ["activation_167", 0, 0, {}], ["activation_169", 0, 0, {}]]], "class_name": "Concatenate", "name": "concatenate_11", "config": {"axis": 3, "trainable": true, "name": "concatenate_11"}}, {"inbound_nodes": [[["concatenate_11", 0, 0, {}]]], "class_name": "Conv2D", "name": "conv2d_154", "config": {"bias_constraint": null, "dilation_rate": [1, 1], "bias_initializer": {"class_name": "Zeros", "config": {}}, "kernel_constraint": null, "activation": "linear", "trainable": true, "activity_regularizer": null, "kernel_size": [1, 1], "filters": 256, "name": "conv2d_154", "kernel_regularizer": null, "data_format": "channels_last", "kernel_initializer": {"class_name": "VarianceScaling", "config": {"scale": 1.0, "seed": null, "mode": "fan_avg", "distribution": "uniform"}}, "strides": [1, 1], "use_bias": true, "padding": "same", "bias_regularizer": null}}, {"inbound_nodes": [[["conv2d_154", 0, 0, {}]]], "class_name": "BatchNormalization", "name": "batch_normalization_154", "config": {"epsilon": 0.001, "axis": -1, "moving_variance_initializer": {"class_name": "Ones", "config": {}}, "gamma_regularizer": null, "beta_initializer": {"class_name": "Zeros", "config": {}}, "center": true, "gamma_constraint": null, "moving_mean_initializer": {"class_name": "Zeros", "config": {}}, "beta_regularizer": null, "name": "batch_normalization_154", "scale": true, "gamma_initializer": {"class_name": "Ones", "config": {}}, "beta_constraint": null, "trainable": true, "momentum": 0.99}}, {"inbound_nodes": [[["batch_normalization_154", 0, 0, {}]]], "class_name": "GlobalAveragePooling2D", "name": "global_average_pooling2d_9", "config": {"data_format": "channels_last", "trainable": true, "name": "global_average_pooling2d_9"}}, {"inbound_nodes": [[["global_average_pooling2d_9", 0, 0, {}]]], "class_name": "Dense", "name": "dense_17", "config": {"bias_constraint": null, "kernel_constraint": null, "activation": "linear", "trainable": true, "activity_regularizer": null, "use_bias": true, "bias_regularizer": null, "kernel_regularizer": null, "kernel_initializer": {"class_name": "VarianceScaling", "config": {"scale": 1.0, "seed": null, "mode": "fan_avg", "distribution": "uniform"}}, "units": 64, "name": "dense_17", "bias_initializer": {"class_name": "Zeros", "config": {}}}}, {"inbound_nodes": [[["dense_17", 0, 0, {}]]], "class_name": "Activation", "name": "activation_170", "config": {"activation": "relu", "trainable": true, "name": "activation_170"}}, {"inbound_nodes": [[["activation_170", 0, 0, {}]]], "class_name": "Dense", "name": "dense_18", "config": {"bias_constraint": null, "kernel_constraint": null, "activation": "linear", "trainable": true, "activity_regularizer": null, "use_bias": true, "bias_regularizer": null, "kernel_regularizer": null, "kernel_initializer": {"class_name": "VarianceScaling", "config": {"scale": 1.0, "seed": null, "mode": "fan_avg", "distribution": "uniform"}}, "units": 256, "name": "dense_18", "bias_initializer": {"class_name": "Zeros", "config": {}}}}, {"inbound_nodes": [[["dense_18", 0, 0, {}]]], "class_name": "Activation", "name": "activation_171", "config": {"activation": "sigmoid", "trainable": true, "name": "activation_171"}}, {"inbound_nodes": [[["activation_171", 0, 0, {}]]], "class_name": "Reshape", "name": "reshape_9", "config": {"target_shape": [1, 1, 256], "trainable": true, "name": "reshape_9"}}, {"inbound_nodes": [[["batch_normalization_154", 0, 0, {}], ["reshape_9", 0, 0, {}]]], "class_name": "Multiply", "name": "multiply_9", "config": {"trainable": true, "name": "multiply_9"}}, {"inbound_nodes": [[["activation_153", 0, 0, {}], ["multiply_9", 0, 0, {}]]], "class_name": "Add", "name": "add_9", "config": {"trainable": true, "name": "add_9"}}, {"inbound_nodes": [[["add_9", 0, 0, {}]]], "class_name": "Activation", "name": "activation_172", "config": {"activation": "relu", "trainable": true, "name": "activation_172"}}, {"inbound_nodes": [[["activation_172", 0, 0, {}]]], "class_name": "GlobalAveragePooling2D", "name": "global_average_pooling2d_10", "config": {"data_format": "channels_last", "trainable": true, "name": "global_average_pooling2d_10"}}, {"inbound_nodes": [[["global_average_pooling2d_10", 0, 0, {}]]], "class_name": "Dense", "name": "dense_19", "config": {"bias_constraint": null, "kernel_constraint": null, "activation": "softmax", "trainable": true, "activity_regularizer": null, "use_bias": true, "bias_regularizer": null, "kernel_regularizer": null, "kernel_initializer": {"class_name": "VarianceScaling", "config": {"scale": 1.0, "seed": null, "mode": "fan_avg", "distribution": "uniform"}}, "units": 10, "name": "dense_19", "bias_initializer": {"class_name": "Zeros", "config": {}}}}]}}